node {
  name: "global_step/Initializer/zeros"
  op: "Const"
  attr {
    key: "_class"
    value {
      list {
        s: "loc:@global_step"
      }
    }
  }
  attr {
    key: "_output_shapes"
    value {
      list {
        shape {
        }
      }
    }
  }
  attr {
    key: "dtype"
    value {
      type: DT_INT64
    }
  }
  attr {
    key: "value"
    value {
      tensor {
        dtype: DT_INT64
        tensor_shape {
        }
        int64_val: 0
      }
    }
  }
}
node {
  name: "global_step"
  op: "VarHandleOp"
  attr {
    key: "_class"
    value {
      list {
        s: "loc:@global_step"
      }
    }
  }
  attr {
    key: "_output_shapes"
    value {
      list {
        shape {
        }
      }
    }
  }
  attr {
    key: "container"
    value {
      s: ""
    }
  }
  attr {
    key: "dtype"
    value {
      type: DT_INT64
    }
  }
  attr {
    key: "shape"
    value {
      shape {
      }
    }
  }
  attr {
    key: "shared_name"
    value {
      s: "global_step"
    }
  }
}
node {
  name: "global_step/IsInitialized/VarIsInitializedOp"
  op: "VarIsInitializedOp"
  input: "global_step"
  attr {
    key: "_output_shapes"
    value {
      list {
        shape {
        }
      }
    }
  }
}
node {
  name: "global_step/Assign"
  op: "AssignVariableOp"
  input: "global_step"
  input: "global_step/Initializer/zeros"
  attr {
    key: "_class"
    value {
      list {
        s: "loc:@global_step"
      }
    }
  }
  attr {
    key: "dtype"
    value {
      type: DT_INT64
    }
  }
}
node {
  name: "global_step/Read/ReadVariableOp"
  op: "ReadVariableOp"
  input: "global_step"
  attr {
    key: "_class"
    value {
      list {
        s: "loc:@global_step"
      }
    }
  }
  attr {
    key: "_output_shapes"
    value {
      list {
        shape {
        }
      }
    }
  }
  attr {
    key: "dtype"
    value {
      type: DT_INT64
    }
  }
}
node {
  name: "global_step/VarIsInitializedOp"
  op: "VarIsInitializedOp"
  input: "global_step"
  attr {
    key: "_output_shapes"
    value {
      list {
        shape {
        }
      }
    }
  }
}
node {
  name: "global_step/cond/Switch"
  op: "Switch"
  input: "global_step/VarIsInitializedOp"
  input: "global_step/VarIsInitializedOp"
  attr {
    key: "T"
    value {
      type: DT_BOOL
    }
  }
  attr {
    key: "_output_shapes"
    value {
      list {
        shape {
        }
        shape {
        }
      }
    }
  }
}
node {
  name: "global_step/cond/switch_t"
  op: "Identity"
  input: "global_step/cond/Switch:1"
  attr {
    key: "T"
    value {
      type: DT_BOOL
    }
  }
  attr {
    key: "_output_shapes"
    value {
      list {
        shape {
        }
      }
    }
  }
}
node {
  name: "global_step/cond/switch_f"
  op: "Identity"
  input: "global_step/cond/Switch"
  attr {
    key: "T"
    value {
      type: DT_BOOL
    }
  }
  attr {
    key: "_output_shapes"
    value {
      list {
        shape {
        }
      }
    }
  }
}
node {
  name: "global_step/cond/pred_id"
  op: "Identity"
  input: "global_step/VarIsInitializedOp"
  attr {
    key: "T"
    value {
      type: DT_BOOL
    }
  }
  attr {
    key: "_output_shapes"
    value {
      list {
        shape {
        }
      }
    }
  }
}
node {
  name: "global_step/cond/Read/ReadVariableOp"
  op: "ReadVariableOp"
  input: "global_step/cond/Read/ReadVariableOp/Switch:1"
  attr {
    key: "_output_shapes"
    value {
      list {
        shape {
        }
      }
    }
  }
  attr {
    key: "dtype"
    value {
      type: DT_INT64
    }
  }
}
node {
  name: "global_step/cond/Read/ReadVariableOp/Switch"
  op: "Switch"
  input: "global_step"
  input: "global_step/cond/pred_id"
  attr {
    key: "T"
    value {
      type: DT_RESOURCE
    }
  }
  attr {
    key: "_class"
    value {
      list {
        s: "loc:@global_step"
      }
    }
  }
  attr {
    key: "_output_shapes"
    value {
      list {
        shape {
        }
        shape {
        }
      }
    }
  }
}
node {
  name: "global_step/cond/Identity"
  op: "Identity"
  input: "global_step/cond/Read/ReadVariableOp"
  attr {
    key: "T"
    value {
      type: DT_INT64
    }
  }
  attr {
    key: "_output_shapes"
    value {
      list {
        shape {
        }
      }
    }
  }
}
node {
  name: "global_step/cond/Switch_1"
  op: "Switch"
  input: "global_step/Initializer/zeros"
  input: "global_step/cond/pred_id"
  attr {
    key: "T"
    value {
      type: DT_INT64
    }
  }
  attr {
    key: "_class"
    value {
      list {
        s: "loc:@global_step"
      }
    }
  }
  attr {
    key: "_output_shapes"
    value {
      list {
        shape {
        }
        shape {
        }
      }
    }
  }
}
node {
  name: "global_step/cond/Merge"
  op: "Merge"
  input: "global_step/cond/Switch_1"
  input: "global_step/cond/Identity"
  attr {
    key: "N"
    value {
      i: 2
    }
  }
  attr {
    key: "T"
    value {
      type: DT_INT64
    }
  }
  attr {
    key: "_output_shapes"
    value {
      list {
        shape {
        }
        shape {
        }
      }
    }
  }
}
node {
  name: "global_step/add/y"
  op: "Const"
  attr {
    key: "_output_shapes"
    value {
      list {
        shape {
        }
      }
    }
  }
  attr {
    key: "dtype"
    value {
      type: DT_INT64
    }
  }
  attr {
    key: "value"
    value {
      tensor {
        dtype: DT_INT64
        tensor_shape {
        }
        int64_val: 0
      }
    }
  }
}
node {
  name: "global_step/add"
  op: "Add"
  input: "global_step/cond/Merge"
  input: "global_step/add/y"
  attr {
    key: "T"
    value {
      type: DT_INT64
    }
  }
  attr {
    key: "_output_shapes"
    value {
      list {
        shape {
        }
      }
    }
  }
}
node {
  name: "input_pipeline_task0/OneShotIterator"
  op: "OneShotIterator"
  device: "/job:worker/task:0/device:CPU:0"
  attr {
    key: "_output_shapes"
    value {
      list {
        shape {
        }
      }
    }
  }
  attr {
    key: "container"
    value {
      s: ""
    }
  }
  attr {
    key: "dataset_factory"
    value {
      func {
        name: "_make_dataset_zTjIZOlRFUU"
      }
    }
  }
  attr {
    key: "output_shapes"
    value {
      list {
        shape {
          dim {
            size: 128
          }
          dim {
            size: 256
          }
          dim {
            size: 256
          }
          dim {
            size: 3
          }
        }
      }
    }
  }
  attr {
    key: "output_types"
    value {
      list {
        type: DT_FLOAT
      }
    }
  }
  attr {
    key: "shared_name"
    value {
      s: ""
    }
  }
}
node {
  name: "input_pipeline_task0/IteratorToStringHandle"
  op: "IteratorToStringHandle"
  input: "input_pipeline_task0/OneShotIterator"
  device: "/job:worker/task:0/device:CPU:0"
  attr {
    key: "_output_shapes"
    value {
      list {
        shape {
        }
      }
    }
  }
}
node {
  name: "input_pipeline_task0/IteratorGetNext"
  op: "IteratorGetNext"
  input: "input_pipeline_task0/OneShotIterator"
  device: "/job:worker/task:0/device:CPU:0"
  attr {
    key: "_output_shapes"
    value {
      list {
        shape {
          dim {
            size: 128
          }
          dim {
            size: 256
          }
          dim {
            size: 256
          }
          dim {
            size: 3
          }
        }
      }
    }
  }
  attr {
    key: "output_shapes"
    value {
      list {
        shape {
          dim {
            size: 128
          }
          dim {
            size: 256
          }
          dim {
            size: 256
          }
          dim {
            size: 3
          }
        }
      }
    }
  }
  attr {
    key: "output_types"
    value {
      list {
        type: DT_FLOAT
      }
    }
  }
}
node {
  name: "input_pipeline_task0/OneShotIterator_1"
  op: "OneShotIterator"
  device: "/job:worker/task:0/device:CPU:0"
  attr {
    key: "_output_shapes"
    value {
      list {
        shape {
        }
      }
    }
  }
  attr {
    key: "container"
    value {
      s: ""
    }
  }
  attr {
    key: "dataset_factory"
    value {
      func {
        name: "_make_dataset_yFWJkZd1cJs"
      }
    }
  }
  attr {
    key: "output_shapes"
    value {
      list {
        shape {
          dim {
            size: 128
          }
          dim {
            size: 256
          }
          dim {
            size: 256
          }
          dim {
            size: 3
          }
        }
      }
    }
  }
  attr {
    key: "output_types"
    value {
      list {
        type: DT_FLOAT
      }
    }
  }
  attr {
    key: "shared_name"
    value {
      s: ""
    }
  }
}
node {
  name: "input_pipeline_task0/IteratorToStringHandle_1"
  op: "IteratorToStringHandle"
  input: "input_pipeline_task0/OneShotIterator_1"
  device: "/job:worker/task:0/device:CPU:0"
  attr {
    key: "_output_shapes"
    value {
      list {
        shape {
        }
      }
    }
  }
}
node {
  name: "input_pipeline_task0/IteratorGetNext_1"
  op: "IteratorGetNext"
  input: "input_pipeline_task0/OneShotIterator_1"
  device: "/job:worker/task:0/device:CPU:0"
  attr {
    key: "_output_shapes"
    value {
      list {
        shape {
          dim {
            size: 128
          }
          dim {
            size: 256
          }
          dim {
            size: 256
          }
          dim {
            size: 3
          }
        }
      }
    }
  }
  attr {
    key: "output_shapes"
    value {
      list {
        shape {
          dim {
            size: 128
          }
          dim {
            size: 256
          }
          dim {
            size: 256
          }
          dim {
            size: 3
          }
        }
      }
    }
  }
  attr {
    key: "output_types"
    value {
      list {
        type: DT_FLOAT
      }
    }
  }
}
node {
  name: "input_pipeline_task0/Const"
  op: "Const"
  device: "/job:worker/task:0/device:CPU:0"
  attr {
    key: "_class"
    value {
      list {
        s: "loc:@input_pipeline_task0/IteratorGetNext"
      }
    }
  }
  attr {
    key: "_output_shapes"
    value {
      list {
        shape {
        }
      }
    }
  }
  attr {
    key: "dtype"
    value {
      type: DT_INT32
    }
  }
  attr {
    key: "value"
    value {
      tensor {
        dtype: DT_INT32
        tensor_shape {
        }
        int_val: 8
      }
    }
  }
}
node {
  name: "input_pipeline_task0/InfeedQueue/split/0/split_dim"
  op: "Const"
  device: "/job:worker/task:0/device:CPU:0"
  attr {
    key: "_class"
    value {
      list {
        s: "loc:@input_pipeline_task0/IteratorGetNext"
      }
    }
  }
  attr {
    key: "_output_shapes"
    value {
      list {
        shape {
        }
      }
    }
  }
  attr {
    key: "dtype"
    value {
      type: DT_INT32
    }
  }
  attr {
    key: "value"
    value {
      tensor {
        dtype: DT_INT32
        tensor_shape {
        }
        int_val: 0
      }
    }
  }
}
node {
  name: "input_pipeline_task0/InfeedQueue/split/0"
  op: "Split"
  input: "input_pipeline_task0/InfeedQueue/split/0/split_dim"
  input: "input_pipeline_task0/IteratorGetNext"
  device: "/job:worker/task:0/device:CPU:0"
  attr {
    key: "T"
    value {
      type: DT_FLOAT
    }
  }
  attr {
    key: "_class"
    value {
      list {
        s: "loc:@input_pipeline_task0/IteratorGetNext"
      }
    }
  }
  attr {
    key: "_output_shapes"
    value {
      list {
        shape {
          dim {
            size: 16
          }
          dim {
            size: 256
          }
          dim {
            size: 256
          }
          dim {
            size: 3
          }
        }
        shape {
          dim {
            size: 16
          }
          dim {
            size: 256
          }
          dim {
            size: 256
          }
          dim {
            size: 3
          }
        }
        shape {
          dim {
            size: 16
          }
          dim {
            size: 256
          }
          dim {
            size: 256
          }
          dim {
            size: 3
          }
        }
        shape {
          dim {
            size: 16
          }
          dim {
            size: 256
          }
          dim {
            size: 256
          }
          dim {
            size: 3
          }
        }
        shape {
          dim {
            size: 16
          }
          dim {
            size: 256
          }
          dim {
            size: 256
          }
          dim {
            size: 3
          }
        }
        shape {
          dim {
            size: 16
          }
          dim {
            size: 256
          }
          dim {
            size: 256
          }
          dim {
            size: 3
          }
        }
        shape {
          dim {
            size: 16
          }
          dim {
            size: 256
          }
          dim {
            size: 256
          }
          dim {
            size: 3
          }
        }
        shape {
          dim {
            size: 16
          }
          dim {
            size: 256
          }
          dim {
            size: 256
          }
          dim {
            size: 3
          }
        }
      }
    }
  }
  attr {
    key: "num_split"
    value {
      i: 8
    }
  }
}
node {
  name: "input_pipeline_task0/Const_1"
  op: "Const"
  device: "/job:worker/task:0/device:CPU:0"
  attr {
    key: "_class"
    value {
      list {
        s: "loc:@input_pipeline_task0/IteratorGetNext_1"
      }
    }
  }
  attr {
    key: "_output_shapes"
    value {
      list {
        shape {
        }
      }
    }
  }
  attr {
    key: "dtype"
    value {
      type: DT_INT32
    }
  }
  attr {
    key: "value"
    value {
      tensor {
        dtype: DT_INT32
        tensor_shape {
        }
        int_val: 8
      }
    }
  }
}
node {
  name: "input_pipeline_task0/InfeedQueue/split/1/split_dim"
  op: "Const"
  device: "/job:worker/task:0/device:CPU:0"
  attr {
    key: "_class"
    value {
      list {
        s: "loc:@input_pipeline_task0/IteratorGetNext_1"
      }
    }
  }
  attr {
    key: "_output_shapes"
    value {
      list {
        shape {
        }
      }
    }
  }
  attr {
    key: "dtype"
    value {
      type: DT_INT32
    }
  }
  attr {
    key: "value"
    value {
      tensor {
        dtype: DT_INT32
        tensor_shape {
        }
        int_val: 0
      }
    }
  }
}
node {
  name: "input_pipeline_task0/InfeedQueue/split/1"
  op: "Split"
  input: "input_pipeline_task0/InfeedQueue/split/1/split_dim"
  input: "input_pipeline_task0/IteratorGetNext_1"
  device: "/job:worker/task:0/device:CPU:0"
  attr {
    key: "T"
    value {
      type: DT_FLOAT
    }
  }
  attr {
    key: "_class"
    value {
      list {
        s: "loc:@input_pipeline_task0/IteratorGetNext_1"
      }
    }
  }
  attr {
    key: "_output_shapes"
    value {
      list {
        shape {
          dim {
            size: 16
          }
          dim {
            size: 256
          }
          dim {
            size: 256
          }
          dim {
            size: 3
          }
        }
        shape {
          dim {
            size: 16
          }
          dim {
            size: 256
          }
          dim {
            size: 256
          }
          dim {
            size: 3
          }
        }
        shape {
          dim {
            size: 16
          }
          dim {
            size: 256
          }
          dim {
            size: 256
          }
          dim {
            size: 3
          }
        }
        shape {
          dim {
            size: 16
          }
          dim {
            size: 256
          }
          dim {
            size: 256
          }
          dim {
            size: 3
          }
        }
        shape {
          dim {
            size: 16
          }
          dim {
            size: 256
          }
          dim {
            size: 256
          }
          dim {
            size: 3
          }
        }
        shape {
          dim {
            size: 16
          }
          dim {
            size: 256
          }
          dim {
            size: 256
          }
          dim {
            size: 3
          }
        }
        shape {
          dim {
            size: 16
          }
          dim {
            size: 256
          }
          dim {
            size: 256
          }
          dim {
            size: 3
          }
        }
        shape {
          dim {
            size: 16
          }
          dim {
            size: 256
          }
          dim {
            size: 256
          }
          dim {
            size: 3
          }
        }
      }
    }
  }
  attr {
    key: "num_split"
    value {
      i: 8
    }
  }
}
node {
  name: "input_pipeline_task0/InfeedQueue/enqueue/0"
  op: "InfeedEnqueueTuple"
  input: "input_pipeline_task0/InfeedQueue/split/0"
  input: "input_pipeline_task0/InfeedQueue/split/1"
  device: "/job:worker/task:0/device:CPU:0"
  attr {
    key: "device_ordinal"
    value {
      i: 0
    }
  }
  attr {
    key: "dtypes"
    value {
      list {
        type: DT_FLOAT
        type: DT_FLOAT
      }
    }
  }
  attr {
    key: "shapes"
    value {
      list {
        shape {
          dim {
            size: 16
          }
          dim {
            size: 256
          }
          dim {
            size: 256
          }
          dim {
            size: 3
          }
        }
        shape {
          dim {
            size: 16
          }
          dim {
            size: 256
          }
          dim {
            size: 256
          }
          dim {
            size: 3
          }
        }
      }
    }
  }
}
node {
  name: "input_pipeline_task0/InfeedQueue/enqueue/1"
  op: "InfeedEnqueueTuple"
  input: "input_pipeline_task0/InfeedQueue/split/0:1"
  input: "input_pipeline_task0/InfeedQueue/split/1:1"
  device: "/job:worker/task:0/device:CPU:0"
  attr {
    key: "device_ordinal"
    value {
      i: 1
    }
  }
  attr {
    key: "dtypes"
    value {
      list {
        type: DT_FLOAT
        type: DT_FLOAT
      }
    }
  }
  attr {
    key: "shapes"
    value {
      list {
        shape {
          dim {
            size: 16
          }
          dim {
            size: 256
          }
          dim {
            size: 256
          }
          dim {
            size: 3
          }
        }
        shape {
          dim {
            size: 16
          }
          dim {
            size: 256
          }
          dim {
            size: 256
          }
          dim {
            size: 3
          }
        }
      }
    }
  }
}
node {
  name: "input_pipeline_task0/InfeedQueue/enqueue/2"
  op: "InfeedEnqueueTuple"
  input: "input_pipeline_task0/InfeedQueue/split/0:2"
  input: "input_pipeline_task0/InfeedQueue/split/1:2"
  device: "/job:worker/task:0/device:CPU:0"
  attr {
    key: "device_ordinal"
    value {
      i: 2
    }
  }
  attr {
    key: "dtypes"
    value {
      list {
        type: DT_FLOAT
        type: DT_FLOAT
      }
    }
  }
  attr {
    key: "shapes"
    value {
      list {
        shape {
          dim {
            size: 16
          }
          dim {
            size: 256
          }
          dim {
            size: 256
          }
          dim {
            size: 3
          }
        }
        shape {
          dim {
            size: 16
          }
          dim {
            size: 256
          }
          dim {
            size: 256
          }
          dim {
            size: 3
          }
        }
      }
    }
  }
}
node {
  name: "input_pipeline_task0/InfeedQueue/enqueue/3"
  op: "InfeedEnqueueTuple"
  input: "input_pipeline_task0/InfeedQueue/split/0:3"
  input: "input_pipeline_task0/InfeedQueue/split/1:3"
  device: "/job:worker/task:0/device:CPU:0"
  attr {
    key: "device_ordinal"
    value {
      i: 3
    }
  }
  attr {
    key: "dtypes"
    value {
      list {
        type: DT_FLOAT
        type: DT_FLOAT
      }
    }
  }
  attr {
    key: "shapes"
    value {
      list {
        shape {
          dim {
            size: 16
          }
          dim {
            size: 256
          }
          dim {
            size: 256
          }
          dim {
            size: 3
          }
        }
        shape {
          dim {
            size: 16
          }
          dim {
            size: 256
          }
          dim {
            size: 256
          }
          dim {
            size: 3
          }
        }
      }
    }
  }
}
node {
  name: "input_pipeline_task0/InfeedQueue/enqueue/4"
  op: "InfeedEnqueueTuple"
  input: "input_pipeline_task0/InfeedQueue/split/0:4"
  input: "input_pipeline_task0/InfeedQueue/split/1:4"
  device: "/job:worker/task:0/device:CPU:0"
  attr {
    key: "device_ordinal"
    value {
      i: 4
    }
  }
  attr {
    key: "dtypes"
    value {
      list {
        type: DT_FLOAT
        type: DT_FLOAT
      }
    }
  }
  attr {
    key: "shapes"
    value {
      list {
        shape {
          dim {
            size: 16
          }
          dim {
            size: 256
          }
          dim {
            size: 256
          }
          dim {
            size: 3
          }
        }
        shape {
          dim {
            size: 16
          }
          dim {
            size: 256
          }
          dim {
            size: 256
          }
          dim {
            size: 3
          }
        }
      }
    }
  }
}
node {
  name: "input_pipeline_task0/InfeedQueue/enqueue/5"
  op: "InfeedEnqueueTuple"
  input: "input_pipeline_task0/InfeedQueue/split/0:5"
  input: "input_pipeline_task0/InfeedQueue/split/1:5"
  device: "/job:worker/task:0/device:CPU:0"
  attr {
    key: "device_ordinal"
    value {
      i: 5
    }
  }
  attr {
    key: "dtypes"
    value {
      list {
        type: DT_FLOAT
        type: DT_FLOAT
      }
    }
  }
  attr {
    key: "shapes"
    value {
      list {
        shape {
          dim {
            size: 16
          }
          dim {
            size: 256
          }
          dim {
            size: 256
          }
          dim {
            size: 3
          }
        }
        shape {
          dim {
            size: 16
          }
          dim {
            size: 256
          }
          dim {
            size: 256
          }
          dim {
            size: 3
          }
        }
      }
    }
  }
}
node {
  name: "input_pipeline_task0/InfeedQueue/enqueue/6"
  op: "InfeedEnqueueTuple"
  input: "input_pipeline_task0/InfeedQueue/split/0:6"
  input: "input_pipeline_task0/InfeedQueue/split/1:6"
  device: "/job:worker/task:0/device:CPU:0"
  attr {
    key: "device_ordinal"
    value {
      i: 6
    }
  }
  attr {
    key: "dtypes"
    value {
      list {
        type: DT_FLOAT
        type: DT_FLOAT
      }
    }
  }
  attr {
    key: "shapes"
    value {
      list {
        shape {
          dim {
            size: 16
          }
          dim {
            size: 256
          }
          dim {
            size: 256
          }
          dim {
            size: 3
          }
        }
        shape {
          dim {
            size: 16
          }
          dim {
            size: 256
          }
          dim {
            size: 256
          }
          dim {
            size: 3
          }
        }
      }
    }
  }
}
node {
  name: "input_pipeline_task0/InfeedQueue/enqueue/7"
  op: "InfeedEnqueueTuple"
  input: "input_pipeline_task0/InfeedQueue/split/0:7"
  input: "input_pipeline_task0/InfeedQueue/split/1:7"
  device: "/job:worker/task:0/device:CPU:0"
  attr {
    key: "device_ordinal"
    value {
      i: 7
    }
  }
  attr {
    key: "dtypes"
    value {
      list {
        type: DT_FLOAT
        type: DT_FLOAT
      }
    }
  }
  attr {
    key: "shapes"
    value {
      list {
        shape {
          dim {
            size: 16
          }
          dim {
            size: 256
          }
          dim {
            size: 256
          }
          dim {
            size: 3
          }
        }
        shape {
          dim {
            size: 16
          }
          dim {
            size: 256
          }
          dim {
            size: 256
          }
          dim {
            size: 3
          }
        }
      }
    }
  }
}
node {
  name: "Read/ReadVariableOp"
  op: "ReadVariableOp"
  input: "global_step"
  attr {
    key: "_output_shapes"
    value {
      list {
        shape {
        }
      }
    }
  }
  attr {
    key: "dtype"
    value {
      type: DT_INT64
    }
  }
}
node {
  name: "Identity"
  op: "Identity"
  input: "Read/ReadVariableOp"
  attr {
    key: "T"
    value {
      type: DT_INT64
    }
  }
  attr {
    key: "_output_shapes"
    value {
      list {
        shape {
        }
      }
    }
  }
}
node {
  name: "tpu_estimator/iterations_per_loop/Initializer/zeros"
  op: "Const"
  attr {
    key: "_class"
    value {
      list {
        s: "loc:@Read/ReadVariableOp"
      }
    }
  }
  attr {
    key: "_output_shapes"
    value {
      list {
        shape {
        }
      }
    }
  }
  attr {
    key: "dtype"
    value {
      type: DT_INT32
    }
  }
  attr {
    key: "value"
    value {
      tensor {
        dtype: DT_INT32
        tensor_shape {
        }
        int_val: 0
      }
    }
  }
}
node {
  name: "tpu_estimator/iterations_per_loop"
  op: "VarHandleOp"
  attr {
    key: "_class"
    value {
      list {
        s: "loc:@Read/ReadVariableOp"
      }
    }
  }
  attr {
    key: "_output_shapes"
    value {
      list {
        shape {
        }
      }
    }
  }
  attr {
    key: "container"
    value {
      s: ""
    }
  }
  attr {
    key: "dtype"
    value {
      type: DT_INT32
    }
  }
  attr {
    key: "shape"
    value {
      shape {
      }
    }
  }
  attr {
    key: "shared_name"
    value {
      s: "tpu_estimator/iterations_per_loop"
    }
  }
}
node {
  name: "tpu_estimator/iterations_per_loop/IsInitialized/VarIsInitializedOp"
  op: "VarIsInitializedOp"
  input: "tpu_estimator/iterations_per_loop"
  attr {
    key: "_class"
    value {
      list {
        s: "loc:@Read/ReadVariableOp"
      }
    }
  }
  attr {
    key: "_output_shapes"
    value {
      list {
        shape {
        }
      }
    }
  }
}
node {
  name: "tpu_estimator/iterations_per_loop/Assign"
  op: "AssignVariableOp"
  input: "tpu_estimator/iterations_per_loop"
  input: "tpu_estimator/iterations_per_loop/Initializer/zeros"
  attr {
    key: "_class"
    value {
      list {
        s: "loc:@Read/ReadVariableOp"
      }
    }
  }
  attr {
    key: "dtype"
    value {
      type: DT_INT32
    }
  }
}
node {
  name: "tpu_estimator/iterations_per_loop/Read/ReadVariableOp"
  op: "ReadVariableOp"
  input: "tpu_estimator/iterations_per_loop"
  attr {
    key: "_class"
    value {
      list {
        s: "loc:@Read/ReadVariableOp"
      }
    }
  }
  attr {
    key: "_output_shapes"
    value {
      list {
        shape {
        }
      }
    }
  }
  attr {
    key: "dtype"
    value {
      type: DT_INT32
    }
  }
}
node {
  name: "cluster/pivot"
  op: "NoOp"
}
node {
  name: "TPUReplicateMetadata"
  op: "TPUReplicateMetadata"
  input: "^cluster/pivot"
  attr {
    key: "_tpu_replicate"
    value {
      s: "cluster"
    }
  }
  attr {
    key: "computation_shape"
    value {
      list {
      }
    }
  }
  attr {
    key: "device_assignment"
    value {
      list {
      }
    }
  }
  attr {
    key: "host_compute_core"
    value {
      list {
      }
    }
  }
  attr {
    key: "num_cores_per_replica"
    value {
      i: 1
    }
  }
  attr {
    key: "num_replicas"
    value {
      i: 8
    }
  }
  attr {
    key: "topology"
    value {
      s: ""
    }
  }
  attr {
    key: "use_tpu"
    value {
      b: true
    }
  }
}
node {
  name: "Const"
  op: "Const"
  input: "^TPUReplicateMetadata"
  attr {
    key: "_output_shapes"
    value {
      list {
        shape {
        }
      }
    }
  }
  attr {
    key: "_tpu_replicate"
    value {
      s: "cluster"
    }
  }
  attr {
    key: "dtype"
    value {
      type: DT_INT32
    }
  }
  attr {
    key: "value"
    value {
      tensor {
        dtype: DT_INT32
        tensor_shape {
        }
        int_val: 0
      }
    }
  }
}
node {
  name: "Const_1"
  op: "Const"
  input: "^TPUReplicateMetadata"
  attr {
    key: "_output_shapes"
    value {
      list {
        shape {
        }
      }
    }
  }
  attr {
    key: "_tpu_replicate"
    value {
      s: "cluster"
    }
  }
  attr {
    key: "dtype"
    value {
      type: DT_FLOAT
    }
  }
  attr {
    key: "value"
    value {
      tensor {
        dtype: DT_FLOAT
        tensor_shape {
        }
        float_val: 10000000.0
      }
    }
  }
}
node {
  name: "Enter"
  op: "Enter"
  input: "Const"
  attr {
    key: "T"
    value {
      type: DT_INT32
    }
  }
  attr {
    key: "_output_shapes"
    value {
      list {
        shape {
        }
      }
    }
  }
  attr {
    key: "_tpu_replicate"
    value {
      s: "cluster"
    }
  }
  attr {
    key: "frame_name"
    value {
      s: "while_context"
    }
  }
  attr {
    key: "is_constant"
    value {
      b: false
    }
  }
  attr {
    key: "parallel_iterations"
    value {
      i: 10
    }
  }
}
node {
  name: "Enter_1"
  op: "Enter"
  input: "Const_1"
  attr {
    key: "T"
    value {
      type: DT_FLOAT
    }
  }
  attr {
    key: "_output_shapes"
    value {
      list {
        shape {
        }
      }
    }
  }
  attr {
    key: "_tpu_replicate"
    value {
      s: "cluster"
    }
  }
  attr {
    key: "frame_name"
    value {
      s: "while_context"
    }
  }
  attr {
    key: "is_constant"
    value {
      b: false
    }
  }
  attr {
    key: "parallel_iterations"
    value {
      i: 10
    }
  }
}
node {
  name: "Merge"
  op: "Merge"
  input: "Enter"
  input: "NextIteration"
  attr {
    key: "N"
    value {
      i: 2
    }
  }
  attr {
    key: "T"
    value {
      type: DT_INT32
    }
  }
  attr {
    key: "_output_shapes"
    value {
      list {
        shape {
        }
        shape {
        }
      }
    }
  }
  attr {
    key: "_tpu_replicate"
    value {
      s: "cluster"
    }
  }
}
node {
  name: "Merge_1"
  op: "Merge"
  input: "Enter_1"
  input: "NextIteration_1"
  attr {
    key: "N"
    value {
      i: 2
    }
  }
  attr {
    key: "T"
    value {
      type: DT_FLOAT
    }
  }
  attr {
    key: "_output_shapes"
    value {
      list {
        shape {
        }
        shape {
        }
      }
    }
  }
  attr {
    key: "_tpu_replicate"
    value {
      s: "cluster"
    }
  }
}
node {
  name: "Less/ReadVariableOp"
  op: "ReadVariableOp"
  input: "Less/ReadVariableOp/Enter"
  input: "^Merge"
  attr {
    key: "_output_shapes"
    value {
      list {
        shape {
        }
      }
    }
  }
  attr {
    key: "_tpu_replicate"
    value {
      s: "cluster"
    }
  }
  attr {
    key: "dtype"
    value {
      type: DT_INT32
    }
  }
}
node {
  name: "Less/ReadVariableOp/Enter"
  op: "Enter"
  input: "tpu_estimator/iterations_per_loop"
  input: "^TPUReplicateMetadata"
  attr {
    key: "T"
    value {
      type: DT_RESOURCE
    }
  }
  attr {
    key: "_output_shapes"
    value {
      list {
        shape {
        }
      }
    }
  }
  attr {
    key: "_tpu_replicate"
    value {
      s: "cluster"
    }
  }
  attr {
    key: "frame_name"
    value {
      s: "while_context"
    }
  }
  attr {
    key: "is_constant"
    value {
      b: true
    }
  }
  attr {
    key: "parallel_iterations"
    value {
      i: 10
    }
  }
}
node {
  name: "Less"
  op: "Less"
  input: "Merge"
  input: "Less/ReadVariableOp"
  attr {
    key: "T"
    value {
      type: DT_INT32
    }
  }
  attr {
    key: "_output_shapes"
    value {
      list {
        shape {
        }
      }
    }
  }
  attr {
    key: "_tpu_replicate"
    value {
      s: "cluster"
    }
  }
}
node {
  name: "LoopCond"
  op: "LoopCond"
  input: "Less"
  attr {
    key: "_output_shapes"
    value {
      list {
        shape {
        }
      }
    }
  }
  attr {
    key: "_tpu_replicate"
    value {
      s: "cluster"
    }
  }
}
node {
  name: "Switch"
  op: "Switch"
  input: "Merge"
  input: "LoopCond"
  attr {
    key: "T"
    value {
      type: DT_INT32
    }
  }
  attr {
    key: "_class"
    value {
      list {
        s: "loc:@Merge"
      }
    }
  }
  attr {
    key: "_output_shapes"
    value {
      list {
        shape {
        }
        shape {
        }
      }
    }
  }
  attr {
    key: "_tpu_replicate"
    value {
      s: "cluster"
    }
  }
}
node {
  name: "Switch_1"
  op: "Switch"
  input: "Merge_1"
  input: "LoopCond"
  attr {
    key: "T"
    value {
      type: DT_FLOAT
    }
  }
  attr {
    key: "_class"
    value {
      list {
        s: "loc:@Merge_1"
      }
    }
  }
  attr {
    key: "_output_shapes"
    value {
      list {
        shape {
        }
        shape {
        }
      }
    }
  }
  attr {
    key: "_tpu_replicate"
    value {
      s: "cluster"
    }
  }
}
node {
  name: "Identity_1"
  op: "Identity"
  input: "Switch:1"
  attr {
    key: "T"
    value {
      type: DT_INT32
    }
  }
  attr {
    key: "_output_shapes"
    value {
      list {
        shape {
        }
      }
    }
  }
  attr {
    key: "_tpu_replicate"
    value {
      s: "cluster"
    }
  }
}
node {
  name: "Identity_2"
  op: "Identity"
  input: "Switch_1:1"
  attr {
    key: "T"
    value {
      type: DT_FLOAT
    }
  }
  attr {
    key: "_output_shapes"
    value {
      list {
        shape {
        }
      }
    }
  }
  attr {
    key: "_tpu_replicate"
    value {
      s: "cluster"
    }
  }
}
node {
  name: "add/y"
  op: "Const"
  input: "^Identity_1"
  attr {
    key: "_output_shapes"
    value {
      list {
        shape {
        }
      }
    }
  }
  attr {
    key: "_tpu_replicate"
    value {
      s: "cluster"
    }
  }
  attr {
    key: "dtype"
    value {
      type: DT_INT32
    }
  }
  attr {
    key: "value"
    value {
      tensor {
        dtype: DT_INT32
        tensor_shape {
        }
        int_val: 1
      }
    }
  }
}
node {
  name: "add"
  op: "Add"
  input: "Identity_1"
  input: "add/y"
  attr {
    key: "T"
    value {
      type: DT_INT32
    }
  }
  attr {
    key: "_output_shapes"
    value {
      list {
        shape {
        }
      }
    }
  }
  attr {
    key: "_tpu_replicate"
    value {
      s: "cluster"
    }
  }
}
node {
  name: "InfeedQueue/dequeue"
  op: "InfeedDequeueTuple"
  input: "^Identity_1"
  device: "/device:TPU_REPLICATED_CORE:0"
  attr {
    key: "_output_shapes"
    value {
      list {
        shape {
          dim {
            size: 16
          }
          dim {
            size: 256
          }
          dim {
            size: 256
          }
          dim {
            size: 3
          }
        }
        shape {
          dim {
            size: 16
          }
          dim {
            size: 256
          }
          dim {
            size: 256
          }
          dim {
            size: 3
          }
        }
      }
    }
  }
  attr {
    key: "_tpu_replicate"
    value {
      s: "cluster"
    }
  }
  attr {
    key: "dtypes"
    value {
      list {
        type: DT_FLOAT
        type: DT_FLOAT
      }
    }
  }
  attr {
    key: "shapes"
    value {
      list {
        shape {
          dim {
            size: 16
          }
          dim {
            size: 256
          }
          dim {
            size: 256
          }
          dim {
            size: 3
          }
        }
        shape {
          dim {
            size: 16
          }
          dim {
            size: 256
          }
          dim {
            size: 256
          }
          dim {
            size: 3
          }
        }
      }
    }
  }
}
node {
  name: "Shape"
  op: "Const"
  input: "^Identity_1"
  attr {
    key: "_output_shapes"
    value {
      list {
        shape {
          dim {
            size: 4
          }
        }
      }
    }
  }
  attr {
    key: "_tpu_replicate"
    value {
      s: "cluster"
    }
  }
  attr {
    key: "dtype"
    value {
      type: DT_INT32
    }
  }
  attr {
    key: "value"
    value {
      tensor {
        dtype: DT_INT32
        tensor_shape {
          dim {
            size: 4
          }
        }
        tensor_content: "\020\000\000\000\000\001\000\000\000\001\000\000\003\000\000\000"
      }
    }
  }
}
node {
  name: "vgg19_encoder/block1_conv1/kernel/Initializer/random_uniform/shape"
  op: "Const"
  attr {
    key: "_class"
    value {
      list {
        s: "loc:@vgg19_encoder/block1_conv1/kernel"
      }
    }
  }
  attr {
    key: "_output_shapes"
    value {
      list {
        shape {
          dim {
            size: 4
          }
        }
      }
    }
  }
  attr {
    key: "dtype"
    value {
      type: DT_INT32
    }
  }
  attr {
    key: "value"
    value {
      tensor {
        dtype: DT_INT32
        tensor_shape {
          dim {
            size: 4
          }
        }
        tensor_content: "\003\000\000\000\003\000\000\000\003\000\000\000@\000\000\000"
      }
    }
  }
}
node {
  name: "vgg19_encoder/block1_conv1/kernel/Initializer/random_uniform/min"
  op: "Const"
  attr {
    key: "_class"
    value {
      list {
        s: "loc:@vgg19_encoder/block1_conv1/kernel"
      }
    }
  }
  attr {
    key: "_output_shapes"
    value {
      list {
        shape {
        }
      }
    }
  }
  attr {
    key: "dtype"
    value {
      type: DT_FLOAT
    }
  }
  attr {
    key: "value"
    value {
      tensor {
        dtype: DT_FLOAT
        tensor_shape {
        }
        float_val: -0.09975093603134155
      }
    }
  }
}
node {
  name: "vgg19_encoder/block1_conv1/kernel/Initializer/random_uniform/max"
  op: "Const"
  attr {
    key: "_class"
    value {
      list {
        s: "loc:@vgg19_encoder/block1_conv1/kernel"
      }
    }
  }
  attr {
    key: "_output_shapes"
    value {
      list {
        shape {
        }
      }
    }
  }
  attr {
    key: "dtype"
    value {
      type: DT_FLOAT
    }
  }
  attr {
    key: "value"
    value {
      tensor {
        dtype: DT_FLOAT
        tensor_shape {
        }
        float_val: 0.09975093603134155
      }
    }
  }
}
node {
  name: "vgg19_encoder/block1_conv1/kernel/Initializer/random_uniform/RandomUniform"
  op: "RandomUniform"
  input: "vgg19_encoder/block1_conv1/kernel/Initializer/random_uniform/shape"
  attr {
    key: "T"
    value {
      type: DT_INT32
    }
  }
  attr {
    key: "_class"
    value {
      list {
        s: "loc:@vgg19_encoder/block1_conv1/kernel"
      }
    }
  }
  attr {
    key: "_output_shapes"
    value {
      list {
        shape {
          dim {
            size: 3
          }
          dim {
            size: 3
          }
          dim {
            size: 3
          }
          dim {
            size: 64
          }
        }
      }
    }
  }
  attr {
    key: "dtype"
    value {
      type: DT_FLOAT
    }
  }
  attr {
    key: "seed"
    value {
      i: 0
    }
  }
  attr {
    key: "seed2"
    value {
      i: 0
    }
  }
}
node {
  name: "vgg19_encoder/block1_conv1/kernel/Initializer/random_uniform/sub"
  op: "Sub"
  input: "vgg19_encoder/block1_conv1/kernel/Initializer/random_uniform/max"
  input: "vgg19_encoder/block1_conv1/kernel/Initializer/random_uniform/min"
  attr {
    key: "T"
    value {
      type: DT_FLOAT
    }
  }
  attr {
    key: "_class"
    value {
      list {
        s: "loc:@vgg19_encoder/block1_conv1/kernel"
      }
    }
  }
  attr {
    key: "_output_shapes"
    value {
      list {
        shape {
        }
      }
    }
  }
}
node {
  name: "vgg19_encoder/block1_conv1/kernel/Initializer/random_uniform/mul"
  op: "Mul"
  input: "vgg19_encoder/block1_conv1/kernel/Initializer/random_uniform/RandomUniform"
  input: "vgg19_encoder/block1_conv1/kernel/Initializer/random_uniform/sub"
  attr {
    key: "T"
    value {
      type: DT_FLOAT
    }
  }
  attr {
    key: "_class"
    value {
      list {
        s: "loc:@vgg19_encoder/block1_conv1/kernel"
      }
    }
  }
  attr {
    key: "_output_shapes"
    value {
      list {
        shape {
          dim {
            size: 3
          }
          dim {
            size: 3
          }
          dim {
            size: 3
          }
          dim {
            size: 64
          }
        }
      }
    }
  }
}
node {
  name: "vgg19_encoder/block1_conv1/kernel/Initializer/random_uniform"
  op: "Add"
  input: "vgg19_encoder/block1_conv1/kernel/Initializer/random_uniform/mul"
  input: "vgg19_encoder/block1_conv1/kernel/Initializer/random_uniform/min"
  attr {
    key: "T"
    value {
      type: DT_FLOAT
    }
  }
  attr {
    key: "_class"
    value {
      list {
        s: "loc:@vgg19_encoder/block1_conv1/kernel"
      }
    }
  }
  attr {
    key: "_output_shapes"
    value {
      list {
        shape {
          dim {
            size: 3
          }
          dim {
            size: 3
          }
          dim {
            size: 3
          }
          dim {
            size: 64
          }
        }
      }
    }
  }
}
node {
  name: "vgg19_encoder/block1_conv1/kernel"
  op: "VarHandleOp"
  attr {
    key: "_class"
    value {
      list {
        s: "loc:@vgg19_encoder/block1_conv1/kernel"
      }
    }
  }
  attr {
    key: "_output_shapes"
    value {
      list {
        shape {
        }
      }
    }
  }
  attr {
    key: "container"
    value {
      s: ""
    }
  }
  attr {
    key: "dtype"
    value {
      type: DT_FLOAT
    }
  }
  attr {
    key: "shape"
    value {
      shape {
        dim {
          size: 3
        }
        dim {
          size: 3
        }
        dim {
          size: 3
        }
        dim {
          size: 64
        }
      }
    }
  }
  attr {
    key: "shared_name"
    value {
      s: "vgg19_encoder/block1_conv1/kernel"
    }
  }
}
node {
  name: "vgg19_encoder/block1_conv1/kernel/IsInitialized/VarIsInitializedOp"
  op: "VarIsInitializedOp"
  input: "vgg19_encoder/block1_conv1/kernel"
  attr {
    key: "_output_shapes"
    value {
      list {
        shape {
        }
      }
    }
  }
}
node {
  name: "vgg19_encoder/block1_conv1/kernel/Assign"
  op: "AssignVariableOp"
  input: "vgg19_encoder/block1_conv1/kernel"
  input: "vgg19_encoder/block1_conv1/kernel/Initializer/random_uniform"
  attr {
    key: "_class"
    value {
      list {
        s: "loc:@vgg19_encoder/block1_conv1/kernel"
      }
    }
  }
  attr {
    key: "dtype"
    value {
      type: DT_FLOAT
    }
  }
}
node {
  name: "vgg19_encoder/block1_conv1/kernel/Read/ReadVariableOp"
  op: "ReadVariableOp"
  input: "vgg19_encoder/block1_conv1/kernel"
  attr {
    key: "_class"
    value {
      list {
        s: "loc:@vgg19_encoder/block1_conv1/kernel"
      }
    }
  }
  attr {
    key: "_output_shapes"
    value {
      list {
        shape {
          dim {
            size: 3
          }
          dim {
            size: 3
          }
          dim {
            size: 3
          }
          dim {
            size: 64
          }
        }
      }
    }
  }
  attr {
    key: "dtype"
    value {
      type: DT_FLOAT
    }
  }
}
node {
  name: "vgg19_encoder/block1_conv1/bias/Initializer/zeros"
  op: "Const"
  attr {
    key: "_class"
    value {
      list {
        s: "loc:@vgg19_encoder/block1_conv1/bias"
      }
    }
  }
  attr {
    key: "_output_shapes"
    value {
      list {
        shape {
          dim {
            size: 64
          }
        }
      }
    }
  }
  attr {
    key: "dtype"
    value {
      type: DT_FLOAT
    }
  }
  attr {
    key: "value"
    value {
      tensor {
        dtype: DT_FLOAT
        tensor_shape {
          dim {
            size: 64
          }
        }
        float_val: 0.0
      }
    }
  }
}
node {
  name: "vgg19_encoder/block1_conv1/bias"
  op: "VarHandleOp"
  attr {
    key: "_class"
    value {
      list {
        s: "loc:@vgg19_encoder/block1_conv1/bias"
      }
    }
  }
  attr {
    key: "_output_shapes"
    value {
      list {
        shape {
        }
      }
    }
  }
  attr {
    key: "container"
    value {
      s: ""
    }
  }
  attr {
    key: "dtype"
    value {
      type: DT_FLOAT
    }
  }
  attr {
    key: "shape"
    value {
      shape {
        dim {
          size: 64
        }
      }
    }
  }
  attr {
    key: "shared_name"
    value {
      s: "vgg19_encoder/block1_conv1/bias"
    }
  }
}
node {
  name: "vgg19_encoder/block1_conv1/bias/IsInitialized/VarIsInitializedOp"
  op: "VarIsInitializedOp"
  input: "vgg19_encoder/block1_conv1/bias"
  attr {
    key: "_output_shapes"
    value {
      list {
        shape {
        }
      }
    }
  }
}
node {
  name: "vgg19_encoder/block1_conv1/bias/Assign"
  op: "AssignVariableOp"
  input: "vgg19_encoder/block1_conv1/bias"
  input: "vgg19_encoder/block1_conv1/bias/Initializer/zeros"
  attr {
    key: "_class"
    value {
      list {
        s: "loc:@vgg19_encoder/block1_conv1/bias"
      }
    }
  }
  attr {
    key: "dtype"
    value {
      type: DT_FLOAT
    }
  }
}
node {
  name: "vgg19_encoder/block1_conv1/bias/Read/ReadVariableOp"
  op: "ReadVariableOp"
  input: "vgg19_encoder/block1_conv1/bias"
  attr {
    key: "_class"
    value {
      list {
        s: "loc:@vgg19_encoder/block1_conv1/bias"
      }
    }
  }
  attr {
    key: "_output_shapes"
    value {
      list {
        shape {
          dim {
            size: 64
          }
        }
      }
    }
  }
  attr {
    key: "dtype"
    value {
      type: DT_FLOAT
    }
  }
}
node {
  name: "vgg19_encoder/block1_conv1/dilation_rate"
  op: "Const"
  input: "^Identity_1"
  attr {
    key: "_output_shapes"
    value {
      list {
        shape {
          dim {
            size: 2
          }
        }
      }
    }
  }
  attr {
    key: "_tpu_replicate"
    value {
      s: "cluster"
    }
  }
  attr {
    key: "dtype"
    value {
      type: DT_INT32
    }
  }
  attr {
    key: "value"
    value {
      tensor {
        dtype: DT_INT32
        tensor_shape {
          dim {
            size: 2
          }
        }
        tensor_content: "\001\000\000\000\001\000\000\000"
      }
    }
  }
}
node {
  name: "vgg19_encoder/block1_conv1/Conv2D/ReadVariableOp"
  op: "ReadVariableOp"
  input: "vgg19_encoder/block1_conv1/Conv2D/ReadVariableOp/Enter"
  input: "^Identity_1"
  attr {
    key: "_output_shapes"
    value {
      list {
        shape {
          dim {
            size: 3
          }
          dim {
            size: 3
          }
          dim {
            size: 3
          }
          dim {
            size: 64
          }
        }
      }
    }
  }
  attr {
    key: "_tpu_replicate"
    value {
      s: "cluster"
    }
  }
  attr {
    key: "dtype"
    value {
      type: DT_FLOAT
    }
  }
}
node {
  name: "vgg19_encoder/block1_conv1/Conv2D/ReadVariableOp/Enter"
  op: "Enter"
  input: "vgg19_encoder/block1_conv1/kernel"
  input: "^TPUReplicateMetadata"
  attr {
    key: "T"
    value {
      type: DT_RESOURCE
    }
  }
  attr {
    key: "_output_shapes"
    value {
      list {
        shape {
        }
      }
    }
  }
  attr {
    key: "_tpu_replicate"
    value {
      s: "cluster"
    }
  }
  attr {
    key: "frame_name"
    value {
      s: "while_context"
    }
  }
  attr {
    key: "is_constant"
    value {
      b: true
    }
  }
  attr {
    key: "parallel_iterations"
    value {
      i: 10
    }
  }
}
node {
  name: "vgg19_encoder/block1_conv1/Conv2D"
  op: "Conv2D"
  input: "InfeedQueue/dequeue"
  input: "vgg19_encoder/block1_conv1/Conv2D/ReadVariableOp"
  attr {
    key: "T"
    value {
      type: DT_FLOAT
    }
  }
  attr {
    key: "_output_shapes"
    value {
      list {
        shape {
          dim {
            size: 16
          }
          dim {
            size: 256
          }
          dim {
            size: 256
          }
          dim {
            size: 64
          }
        }
      }
    }
  }
  attr {
    key: "_tpu_replicate"
    value {
      s: "cluster"
    }
  }
  attr {
    key: "data_format"
    value {
      s: "NHWC"
    }
  }
  attr {
    key: "dilations"
    value {
      list {
        i: 1
        i: 1
        i: 1
        i: 1
      }
    }
  }
  attr {
    key: "padding"
    value {
      s: "SAME"
    }
  }
  attr {
    key: "strides"
    value {
      list {
        i: 1
        i: 1
        i: 1
        i: 1
      }
    }
  }
  attr {
    key: "use_cudnn_on_gpu"
    value {
      b: true
    }
  }
}
node {
  name: "vgg19_encoder/block1_conv1/BiasAdd/ReadVariableOp"
  op: "ReadVariableOp"
  input: "vgg19_encoder/block1_conv1/BiasAdd/ReadVariableOp/Enter"
  input: "^Identity_1"
  attr {
    key: "_output_shapes"
    value {
      list {
        shape {
          dim {
            size: 64
          }
        }
      }
    }
  }
  attr {
    key: "_tpu_replicate"
    value {
      s: "cluster"
    }
  }
  attr {
    key: "dtype"
    value {
      type: DT_FLOAT
    }
  }
}
node {
  name: "vgg19_encoder/block1_conv1/BiasAdd/ReadVariableOp/Enter"
  op: "Enter"
  input: "vgg19_encoder/block1_conv1/bias"
  input: "^TPUReplicateMetadata"
  attr {
    key: "T"
    value {
      type: DT_RESOURCE
    }
  }
  attr {
    key: "_output_shapes"
    value {
      list {
        shape {
        }
      }
    }
  }
  attr {
    key: "_tpu_replicate"
    value {
      s: "cluster"
    }
  }
  attr {
    key: "frame_name"
    value {
      s: "while_context"
    }
  }
  attr {
    key: "is_constant"
    value {
      b: true
    }
  }
  attr {
    key: "parallel_iterations"
    value {
      i: 10
    }
  }
}
node {
  name: "vgg19_encoder/block1_conv1/BiasAdd"
  op: "BiasAdd"
  input: "vgg19_encoder/block1_conv1/Conv2D"
  input: "vgg19_encoder/block1_conv1/BiasAdd/ReadVariableOp"
  attr {
    key: "T"
    value {
      type: DT_FLOAT
    }
  }
  attr {
    key: "_output_shapes"
    value {
      list {
        shape {
          dim {
            size: 16
          }
          dim {
            size: 256
          }
          dim {
            size: 256
          }
          dim {
            size: 64
          }
        }
      }
    }
  }
  attr {
    key: "_tpu_replicate"
    value {
      s: "cluster"
    }
  }
  attr {
    key: "data_format"
    value {
      s: "NHWC"
    }
  }
}
node {
  name: "vgg19_encoder/block1_conv1/Relu"
  op: "Relu"
  input: "vgg19_encoder/block1_conv1/BiasAdd"
  attr {
    key: "T"
    value {
      type: DT_FLOAT
    }
  }
  attr {
    key: "_output_shapes"
    value {
      list {
        shape {
          dim {
            size: 16
          }
          dim {
            size: 256
          }
          dim {
            size: 256
          }
          dim {
            size: 64
          }
        }
      }
    }
  }
  attr {
    key: "_tpu_replicate"
    value {
      s: "cluster"
    }
  }
}
node {
  name: "vgg19_encoder/block1_conv2/kernel/Initializer/random_uniform/shape"
  op: "Const"
  attr {
    key: "_class"
    value {
      list {
        s: "loc:@vgg19_encoder/block1_conv2/kernel"
      }
    }
  }
  attr {
    key: "_output_shapes"
    value {
      list {
        shape {
          dim {
            size: 4
          }
        }
      }
    }
  }
  attr {
    key: "dtype"
    value {
      type: DT_INT32
    }
  }
  attr {
    key: "value"
    value {
      tensor {
        dtype: DT_INT32
        tensor_shape {
          dim {
            size: 4
          }
        }
        tensor_content: "\003\000\000\000\003\000\000\000@\000\000\000@\000\000\000"
      }
    }
  }
}
node {
  name: "vgg19_encoder/block1_conv2/kernel/Initializer/random_uniform/min"
  op: "Const"
  attr {
    key: "_class"
    value {
      list {
        s: "loc:@vgg19_encoder/block1_conv2/kernel"
      }
    }
  }
  attr {
    key: "_output_shapes"
    value {
      list {
        shape {
        }
      }
    }
  }
  attr {
    key: "dtype"
    value {
      type: DT_FLOAT
    }
  }
  attr {
    key: "value"
    value {
      tensor {
        dtype: DT_FLOAT
        tensor_shape {
        }
        float_val: -0.07216878235340118
      }
    }
  }
}
node {
  name: "vgg19_encoder/block1_conv2/kernel/Initializer/random_uniform/max"
  op: "Const"
  attr {
    key: "_class"
    value {
      list {
        s: "loc:@vgg19_encoder/block1_conv2/kernel"
      }
    }
  }
  attr {
    key: "_output_shapes"
    value {
      list {
        shape {
        }
      }
    }
  }
  attr {
    key: "dtype"
    value {
      type: DT_FLOAT
    }
  }
  attr {
    key: "value"
    value {
      tensor {
        dtype: DT_FLOAT
        tensor_shape {
        }
        float_val: 0.07216878235340118
      }
    }
  }
}
node {
  name: "vgg19_encoder/block1_conv2/kernel/Initializer/random_uniform/RandomUniform"
  op: "RandomUniform"
  input: "vgg19_encoder/block1_conv2/kernel/Initializer/random_uniform/shape"
  attr {
    key: "T"
    value {
      type: DT_INT32
    }
  }
  attr {
    key: "_class"
    value {
      list {
        s: "loc:@vgg19_encoder/block1_conv2/kernel"
      }
    }
  }
  attr {
    key: "_output_shapes"
    value {
      list {
        shape {
          dim {
            size: 3
          }
          dim {
            size: 3
          }
          dim {
            size: 64
          }
          dim {
            size: 64
          }
        }
      }
    }
  }
  attr {
    key: "dtype"
    value {
      type: DT_FLOAT
    }
  }
  attr {
    key: "seed"
    value {
      i: 0
    }
  }
  attr {
    key: "seed2"
    value {
      i: 0
    }
  }
}
node {
  name: "vgg19_encoder/block1_conv2/kernel/Initializer/random_uniform/sub"
  op: "Sub"
  input: "vgg19_encoder/block1_conv2/kernel/Initializer/random_uniform/max"
  input: "vgg19_encoder/block1_conv2/kernel/Initializer/random_uniform/min"
  attr {
    key: "T"
    value {
      type: DT_FLOAT
    }
  }
  attr {
    key: "_class"
    value {
      list {
        s: "loc:@vgg19_encoder/block1_conv2/kernel"
      }
    }
  }
  attr {
    key: "_output_shapes"
    value {
      list {
        shape {
        }
      }
    }
  }
}
node {
  name: "vgg19_encoder/block1_conv2/kernel/Initializer/random_uniform/mul"
  op: "Mul"
  input: "vgg19_encoder/block1_conv2/kernel/Initializer/random_uniform/RandomUniform"
  input: "vgg19_encoder/block1_conv2/kernel/Initializer/random_uniform/sub"
  attr {
    key: "T"
    value {
      type: DT_FLOAT
    }
  }
  attr {
    key: "_class"
    value {
      list {
        s: "loc:@vgg19_encoder/block1_conv2/kernel"
      }
    }
  }
  attr {
    key: "_output_shapes"
    value {
      list {
        shape {
          dim {
            size: 3
          }
          dim {
            size: 3
          }
          dim {
            size: 64
          }
          dim {
            size: 64
          }
        }
      }
    }
  }
}
node {
  name: "vgg19_encoder/block1_conv2/kernel/Initializer/random_uniform"
  op: "Add"
  input: "vgg19_encoder/block1_conv2/kernel/Initializer/random_uniform/mul"
  input: "vgg19_encoder/block1_conv2/kernel/Initializer/random_uniform/min"
  attr {
    key: "T"
    value {
      type: DT_FLOAT
    }
  }
  attr {
    key: "_class"
    value {
      list {
        s: "loc:@vgg19_encoder/block1_conv2/kernel"
      }
    }
  }
  attr {
    key: "_output_shapes"
    value {
      list {
        shape {
          dim {
            size: 3
          }
          dim {
            size: 3
          }
          dim {
            size: 64
          }
          dim {
            size: 64
          }
        }
      }
    }
  }
}
node {
  name: "vgg19_encoder/block1_conv2/kernel"
  op: "VarHandleOp"
  attr {
    key: "_class"
    value {
      list {
        s: "loc:@vgg19_encoder/block1_conv2/kernel"
      }
    }
  }
  attr {
    key: "_output_shapes"
    value {
      list {
        shape {
        }
      }
    }
  }
  attr {
    key: "container"
    value {
      s: ""
    }
  }
  attr {
    key: "dtype"
    value {
      type: DT_FLOAT
    }
  }
  attr {
    key: "shape"
    value {
      shape {
        dim {
          size: 3
        }
        dim {
          size: 3
        }
        dim {
          size: 64
        }
        dim {
          size: 64
        }
      }
    }
  }
  attr {
    key: "shared_name"
    value {
      s: "vgg19_encoder/block1_conv2/kernel"
    }
  }
}
node {
  name: "vgg19_encoder/block1_conv2/kernel/IsInitialized/VarIsInitializedOp"
  op: "VarIsInitializedOp"
  input: "vgg19_encoder/block1_conv2/kernel"
  attr {
    key: "_output_shapes"
    value {
      list {
        shape {
        }
      }
    }
  }
}
node {
  name: "vgg19_encoder/block1_conv2/kernel/Assign"
  op: "AssignVariableOp"
  input: "vgg19_encoder/block1_conv2/kernel"
  input: "vgg19_encoder/block1_conv2/kernel/Initializer/random_uniform"
  attr {
    key: "_class"
    value {
      list {
        s: "loc:@vgg19_encoder/block1_conv2/kernel"
      }
    }
  }
  attr {
    key: "dtype"
    value {
      type: DT_FLOAT
    }
  }
}
node {
  name: "vgg19_encoder/block1_conv2/kernel/Read/ReadVariableOp"
  op: "ReadVariableOp"
  input: "vgg19_encoder/block1_conv2/kernel"
  attr {
    key: "_class"
    value {
      list {
        s: "loc:@vgg19_encoder/block1_conv2/kernel"
      }
    }
  }
  attr {
    key: "_output_shapes"
    value {
      list {
        shape {
          dim {
            size: 3
          }
          dim {
            size: 3
          }
          dim {
            size: 64
          }
          dim {
            size: 64
          }
        }
      }
    }
  }
  attr {
    key: "dtype"
    value {
      type: DT_FLOAT
    }
  }
}
node {
  name: "vgg19_encoder/block1_conv2/bias/Initializer/zeros"
  op: "Const"
  attr {
    key: "_class"
    value {
      list {
        s: "loc:@vgg19_encoder/block1_conv2/bias"
      }
    }
  }
  attr {
    key: "_output_shapes"
    value {
      list {
        shape {
          dim {
            size: 64
          }
        }
      }
    }
  }
  attr {
    key: "dtype"
    value {
      type: DT_FLOAT
    }
  }
  attr {
    key: "value"
    value {
      tensor {
        dtype: DT_FLOAT
        tensor_shape {
          dim {
            size: 64
          }
        }
        float_val: 0.0
      }
    }
  }
}
node {
  name: "vgg19_encoder/block1_conv2/bias"
  op: "VarHandleOp"
  attr {
    key: "_class"
    value {
      list {
        s: "loc:@vgg19_encoder/block1_conv2/bias"
      }
    }
  }
  attr {
    key: "_output_shapes"
    value {
      list {
        shape {
        }
      }
    }
  }
  attr {
    key: "container"
    value {
      s: ""
    }
  }
  attr {
    key: "dtype"
    value {
      type: DT_FLOAT
    }
  }
  attr {
    key: "shape"
    value {
      shape {
        dim {
          size: 64
        }
      }
    }
  }
  attr {
    key: "shared_name"
    value {
      s: "vgg19_encoder/block1_conv2/bias"
    }
  }
}
node {
  name: "vgg19_encoder/block1_conv2/bias/IsInitialized/VarIsInitializedOp"
  op: "VarIsInitializedOp"
  input: "vgg19_encoder/block1_conv2/bias"
  attr {
    key: "_output_shapes"
    value {
      list {
        shape {
        }
      }
    }
  }
}
node {
  name: "vgg19_encoder/block1_conv2/bias/Assign"
  op: "AssignVariableOp"
  input: "vgg19_encoder/block1_conv2/bias"
  input: "vgg19_encoder/block1_conv2/bias/Initializer/zeros"
  attr {
    key: "_class"
    value {
      list {
        s: "loc:@vgg19_encoder/block1_conv2/bias"
      }
    }
  }
  attr {
    key: "dtype"
    value {
      type: DT_FLOAT
    }
  }
}
node {
  name: "vgg19_encoder/block1_conv2/bias/Read/ReadVariableOp"
  op: "ReadVariableOp"
  input: "vgg19_encoder/block1_conv2/bias"
  attr {
    key: "_class"
    value {
      list {
        s: "loc:@vgg19_encoder/block1_conv2/bias"
      }
    }
  }
  attr {
    key: "_output_shapes"
    value {
      list {
        shape {
          dim {
            size: 64
          }
        }
      }
    }
  }
  attr {
    key: "dtype"
    value {
      type: DT_FLOAT
    }
  }
}
node {
  name: "vgg19_encoder/block1_conv2/dilation_rate"
  op: "Const"
  input: "^Identity_1"
  attr {
    key: "_output_shapes"
    value {
      list {
        shape {
          dim {
            size: 2
          }
        }
      }
    }
  }
  attr {
    key: "_tpu_replicate"
    value {
      s: "cluster"
    }
  }
  attr {
    key: "dtype"
    value {
      type: DT_INT32
    }
  }
  attr {
    key: "value"
    value {
      tensor {
        dtype: DT_INT32
        tensor_shape {
          dim {
            size: 2
          }
        }
        tensor_content: "\001\000\000\000\001\000\000\000"
      }
    }
  }
}
node {
  name: "vgg19_encoder/block1_conv2/Conv2D/ReadVariableOp"
  op: "ReadVariableOp"
  input: "vgg19_encoder/block1_conv2/Conv2D/ReadVariableOp/Enter"
  input: "^Identity_1"
  attr {
    key: "_output_shapes"
    value {
      list {
        shape {
          dim {
            size: 3
          }
          dim {
            size: 3
          }
          dim {
            size: 64
          }
          dim {
            size: 64
          }
        }
      }
    }
  }
  attr {
    key: "_tpu_replicate"
    value {
      s: "cluster"
    }
  }
  attr {
    key: "dtype"
    value {
      type: DT_FLOAT
    }
  }
}
node {
  name: "vgg19_encoder/block1_conv2/Conv2D/ReadVariableOp/Enter"
  op: "Enter"
  input: "vgg19_encoder/block1_conv2/kernel"
  input: "^TPUReplicateMetadata"
  attr {
    key: "T"
    value {
      type: DT_RESOURCE
    }
  }
  attr {
    key: "_output_shapes"
    value {
      list {
        shape {
        }
      }
    }
  }
  attr {
    key: "_tpu_replicate"
    value {
      s: "cluster"
    }
  }
  attr {
    key: "frame_name"
    value {
      s: "while_context"
    }
  }
  attr {
    key: "is_constant"
    value {
      b: true
    }
  }
  attr {
    key: "parallel_iterations"
    value {
      i: 10
    }
  }
}
node {
  name: "vgg19_encoder/block1_conv2/Conv2D"
  op: "Conv2D"
  input: "vgg19_encoder/block1_conv1/Relu"
  input: "vgg19_encoder/block1_conv2/Conv2D/ReadVariableOp"
  attr {
    key: "T"
    value {
      type: DT_FLOAT
    }
  }
  attr {
    key: "_output_shapes"
    value {
      list {
        shape {
          dim {
            size: 16
          }
          dim {
            size: 256
          }
          dim {
            size: 256
          }
          dim {
            size: 64
          }
        }
      }
    }
  }
  attr {
    key: "_tpu_replicate"
    value {
      s: "cluster"
    }
  }
  attr {
    key: "data_format"
    value {
      s: "NHWC"
    }
  }
  attr {
    key: "dilations"
    value {
      list {
        i: 1
        i: 1
        i: 1
        i: 1
      }
    }
  }
  attr {
    key: "padding"
    value {
      s: "SAME"
    }
  }
  attr {
    key: "strides"
    value {
      list {
        i: 1
        i: 1
        i: 1
        i: 1
      }
    }
  }
  attr {
    key: "use_cudnn_on_gpu"
    value {
      b: true
    }
  }
}
node {
  name: "vgg19_encoder/block1_conv2/BiasAdd/ReadVariableOp"
  op: "ReadVariableOp"
  input: "vgg19_encoder/block1_conv2/BiasAdd/ReadVariableOp/Enter"
  input: "^Identity_1"
  attr {
    key: "_output_shapes"
    value {
      list {
        shape {
          dim {
            size: 64
          }
        }
      }
    }
  }
  attr {
    key: "_tpu_replicate"
    value {
      s: "cluster"
    }
  }
  attr {
    key: "dtype"
    value {
      type: DT_FLOAT
    }
  }
}
node {
  name: "vgg19_encoder/block1_conv2/BiasAdd/ReadVariableOp/Enter"
  op: "Enter"
  input: "vgg19_encoder/block1_conv2/bias"
  input: "^TPUReplicateMetadata"
  attr {
    key: "T"
    value {
      type: DT_RESOURCE
    }
  }
  attr {
    key: "_output_shapes"
    value {
      list {
        shape {
        }
      }
    }
  }
  attr {
    key: "_tpu_replicate"
    value {
      s: "cluster"
    }
  }
  attr {
    key: "frame_name"
    value {
      s: "while_context"
    }
  }
  attr {
    key: "is_constant"
    value {
      b: true
    }
  }
  attr {
    key: "parallel_iterations"
    value {
      i: 10
    }
  }
}
node {
  name: "vgg19_encoder/block1_conv2/BiasAdd"
  op: "BiasAdd"
  input: "vgg19_encoder/block1_conv2/Conv2D"
  input: "vgg19_encoder/block1_conv2/BiasAdd/ReadVariableOp"
  attr {
    key: "T"
    value {
      type: DT_FLOAT
    }
  }
  attr {
    key: "_output_shapes"
    value {
      list {
        shape {
          dim {
            size: 16
          }
          dim {
            size: 256
          }
          dim {
            size: 256
          }
          dim {
            size: 64
          }
        }
      }
    }
  }
  attr {
    key: "_tpu_replicate"
    value {
      s: "cluster"
    }
  }
  attr {
    key: "data_format"
    value {
      s: "NHWC"
    }
  }
}
node {
  name: "vgg19_encoder/block1_conv2/Relu"
  op: "Relu"
  input: "vgg19_encoder/block1_conv2/BiasAdd"
  attr {
    key: "T"
    value {
      type: DT_FLOAT
    }
  }
  attr {
    key: "_output_shapes"
    value {
      list {
        shape {
          dim {
            size: 16
          }
          dim {
            size: 256
          }
          dim {
            size: 256
          }
          dim {
            size: 64
          }
        }
      }
    }
  }
  attr {
    key: "_tpu_replicate"
    value {
      s: "cluster"
    }
  }
}
node {
  name: "vgg19_encoder/block1_pool/MaxPool"
  op: "MaxPool"
  input: "vgg19_encoder/block1_conv2/Relu"
  attr {
    key: "T"
    value {
      type: DT_FLOAT
    }
  }
  attr {
    key: "_output_shapes"
    value {
      list {
        shape {
          dim {
            size: 16
          }
          dim {
            size: 128
          }
          dim {
            size: 128
          }
          dim {
            size: 64
          }
        }
      }
    }
  }
  attr {
    key: "_tpu_replicate"
    value {
      s: "cluster"
    }
  }
  attr {
    key: "data_format"
    value {
      s: "NHWC"
    }
  }
  attr {
    key: "ksize"
    value {
      list {
        i: 1
        i: 2
        i: 2
        i: 1
      }
    }
  }
  attr {
    key: "padding"
    value {
      s: "VALID"
    }
  }
  attr {
    key: "strides"
    value {
      list {
        i: 1
        i: 2
        i: 2
        i: 1
      }
    }
  }
}
node {
  name: "vgg19_encoder/block2_conv1/kernel/Initializer/random_uniform/shape"
  op: "Const"
  attr {
    key: "_class"
    value {
      list {
        s: "loc:@vgg19_encoder/block2_conv1/kernel"
      }
    }
  }
  attr {
    key: "_output_shapes"
    value {
      list {
        shape {
          dim {
            size: 4
          }
        }
      }
    }
  }
  attr {
    key: "dtype"
    value {
      type: DT_INT32
    }
  }
  attr {
    key: "value"
    value {
      tensor {
        dtype: DT_INT32
        tensor_shape {
          dim {
            size: 4
          }
        }
        tensor_content: "\003\000\000\000\003\000\000\000@\000\000\000\200\000\000\000"
      }
    }
  }
}
node {
  name: "vgg19_encoder/block2_conv1/kernel/Initializer/random_uniform/min"
  op: "Const"
  attr {
    key: "_class"
    value {
      list {
        s: "loc:@vgg19_encoder/block2_conv1/kernel"
      }
    }
  }
  attr {
    key: "_output_shapes"
    value {
      list {
        shape {
        }
      }
    }
  }
  attr {
    key: "dtype"
    value {
      type: DT_FLOAT
    }
  }
  attr {
    key: "value"
    value {
      tensor {
        dtype: DT_FLOAT
        tensor_shape {
        }
        float_val: -0.0589255653321743
      }
    }
  }
}
node {
  name: "vgg19_encoder/block2_conv1/kernel/Initializer/random_uniform/max"
  op: "Const"
  attr {
    key: "_class"
    value {
      list {
        s: "loc:@vgg19_encoder/block2_conv1/kernel"
      }
    }
  }
  attr {
    key: "_output_shapes"
    value {
      list {
        shape {
        }
      }
    }
  }
  attr {
    key: "dtype"
    value {
      type: DT_FLOAT
    }
  }
  attr {
    key: "value"
    value {
      tensor {
        dtype: DT_FLOAT
        tensor_shape {
        }
        float_val: 0.0589255653321743
      }
    }
  }
}
node {
  name: "vgg19_encoder/block2_conv1/kernel/Initializer/random_uniform/RandomUniform"
  op: "RandomUniform"
  input: "vgg19_encoder/block2_conv1/kernel/Initializer/random_uniform/shape"
  attr {
    key: "T"
    value {
      type: DT_INT32
    }
  }
  attr {
    key: "_class"
    value {
      list {
        s: "loc:@vgg19_encoder/block2_conv1/kernel"
      }
    }
  }
  attr {
    key: "_output_shapes"
    value {
      list {
        shape {
          dim {
            size: 3
          }
          dim {
            size: 3
          }
          dim {
            size: 64
          }
          dim {
            size: 128
          }
        }
      }
    }
  }
  attr {
    key: "dtype"
    value {
      type: DT_FLOAT
    }
  }
  attr {
    key: "seed"
    value {
      i: 0
    }
  }
  attr {
    key: "seed2"
    value {
      i: 0
    }
  }
}
node {
  name: "vgg19_encoder/block2_conv1/kernel/Initializer/random_uniform/sub"
  op: "Sub"
  input: "vgg19_encoder/block2_conv1/kernel/Initializer/random_uniform/max"
  input: "vgg19_encoder/block2_conv1/kernel/Initializer/random_uniform/min"
  attr {
    key: "T"
    value {
      type: DT_FLOAT
    }
  }
  attr {
    key: "_class"
    value {
      list {
        s: "loc:@vgg19_encoder/block2_conv1/kernel"
      }
    }
  }
  attr {
    key: "_output_shapes"
    value {
      list {
        shape {
        }
      }
    }
  }
}
node {
  name: "vgg19_encoder/block2_conv1/kernel/Initializer/random_uniform/mul"
  op: "Mul"
  input: "vgg19_encoder/block2_conv1/kernel/Initializer/random_uniform/RandomUniform"
  input: "vgg19_encoder/block2_conv1/kernel/Initializer/random_uniform/sub"
  attr {
    key: "T"
    value {
      type: DT_FLOAT
    }
  }
  attr {
    key: "_class"
    value {
      list {
        s: "loc:@vgg19_encoder/block2_conv1/kernel"
      }
    }
  }
  attr {
    key: "_output_shapes"
    value {
      list {
        shape {
          dim {
            size: 3
          }
          dim {
            size: 3
          }
          dim {
            size: 64
          }
          dim {
            size: 128
          }
        }
      }
    }
  }
}
node {
  name: "vgg19_encoder/block2_conv1/kernel/Initializer/random_uniform"
  op: "Add"
  input: "vgg19_encoder/block2_conv1/kernel/Initializer/random_uniform/mul"
  input: "vgg19_encoder/block2_conv1/kernel/Initializer/random_uniform/min"
  attr {
    key: "T"
    value {
      type: DT_FLOAT
    }
  }
  attr {
    key: "_class"
    value {
      list {
        s: "loc:@vgg19_encoder/block2_conv1/kernel"
      }
    }
  }
  attr {
    key: "_output_shapes"
    value {
      list {
        shape {
          dim {
            size: 3
          }
          dim {
            size: 3
          }
          dim {
            size: 64
          }
          dim {
            size: 128
          }
        }
      }
    }
  }
}
node {
  name: "vgg19_encoder/block2_conv1/kernel"
  op: "VarHandleOp"
  attr {
    key: "_class"
    value {
      list {
        s: "loc:@vgg19_encoder/block2_conv1/kernel"
      }
    }
  }
  attr {
    key: "_output_shapes"
    value {
      list {
        shape {
        }
      }
    }
  }
  attr {
    key: "container"
    value {
      s: ""
    }
  }
  attr {
    key: "dtype"
    value {
      type: DT_FLOAT
    }
  }
  attr {
    key: "shape"
    value {
      shape {
        dim {
          size: 3
        }
        dim {
          size: 3
        }
        dim {
          size: 64
        }
        dim {
          size: 128
        }
      }
    }
  }
  attr {
    key: "shared_name"
    value {
      s: "vgg19_encoder/block2_conv1/kernel"
    }
  }
}
node {
  name: "vgg19_encoder/block2_conv1/kernel/IsInitialized/VarIsInitializedOp"
  op: "VarIsInitializedOp"
  input: "vgg19_encoder/block2_conv1/kernel"
  attr {
    key: "_output_shapes"
    value {
      list {
        shape {
        }
      }
    }
  }
}
node {
  name: "vgg19_encoder/block2_conv1/kernel/Assign"
  op: "AssignVariableOp"
  input: "vgg19_encoder/block2_conv1/kernel"
  input: "vgg19_encoder/block2_conv1/kernel/Initializer/random_uniform"
  attr {
    key: "_class"
    value {
      list {
        s: "loc:@vgg19_encoder/block2_conv1/kernel"
      }
    }
  }
  attr {
    key: "dtype"
    value {
      type: DT_FLOAT
    }
  }
}
node {
  name: "vgg19_encoder/block2_conv1/kernel/Read/ReadVariableOp"
  op: "ReadVariableOp"
  input: "vgg19_encoder/block2_conv1/kernel"
  attr {
    key: "_class"
    value {
      list {
        s: "loc:@vgg19_encoder/block2_conv1/kernel"
      }
    }
  }
  attr {
    key: "_output_shapes"
    value {
      list {
        shape {
          dim {
            size: 3
          }
          dim {
            size: 3
          }
          dim {
            size: 64
          }
          dim {
            size: 128
          }
        }
      }
    }
  }
  attr {
    key: "dtype"
    value {
      type: DT_FLOAT
    }
  }
}
node {
  name: "vgg19_encoder/block2_conv1/bias/Initializer/zeros"
  op: "Const"
  attr {
    key: "_class"
    value {
      list {
        s: "loc:@vgg19_encoder/block2_conv1/bias"
      }
    }
  }
  attr {
    key: "_output_shapes"
    value {
      list {
        shape {
          dim {
            size: 128
          }
        }
      }
    }
  }
  attr {
    key: "dtype"
    value {
      type: DT_FLOAT
    }
  }
  attr {
    key: "value"
    value {
      tensor {
        dtype: DT_FLOAT
        tensor_shape {
          dim {
            size: 128
          }
        }
        float_val: 0.0
      }
    }
  }
}
node {
  name: "vgg19_encoder/block2_conv1/bias"
  op: "VarHandleOp"
  attr {
    key: "_class"
    value {
      list {
        s: "loc:@vgg19_encoder/block2_conv1/bias"
      }
    }
  }
  attr {
    key: "_output_shapes"
    value {
      list {
        shape {
        }
      }
    }
  }
  attr {
    key: "container"
    value {
      s: ""
    }
  }
  attr {
    key: "dtype"
    value {
      type: DT_FLOAT
    }
  }
  attr {
    key: "shape"
    value {
      shape {
        dim {
          size: 128
        }
      }
    }
  }
  attr {
    key: "shared_name"
    value {
      s: "vgg19_encoder/block2_conv1/bias"
    }
  }
}
node {
  name: "vgg19_encoder/block2_conv1/bias/IsInitialized/VarIsInitializedOp"
  op: "VarIsInitializedOp"
  input: "vgg19_encoder/block2_conv1/bias"
  attr {
    key: "_output_shapes"
    value {
      list {
        shape {
        }
      }
    }
  }
}
node {
  name: "vgg19_encoder/block2_conv1/bias/Assign"
  op: "AssignVariableOp"
  input: "vgg19_encoder/block2_conv1/bias"
  input: "vgg19_encoder/block2_conv1/bias/Initializer/zeros"
  attr {
    key: "_class"
    value {
      list {
        s: "loc:@vgg19_encoder/block2_conv1/bias"
      }
    }
  }
  attr {
    key: "dtype"
    value {
      type: DT_FLOAT
    }
  }
}
node {
  name: "vgg19_encoder/block2_conv1/bias/Read/ReadVariableOp"
  op: "ReadVariableOp"
  input: "vgg19_encoder/block2_conv1/bias"
  attr {
    key: "_class"
    value {
      list {
        s: "loc:@vgg19_encoder/block2_conv1/bias"
      }
    }
  }
  attr {
    key: "_output_shapes"
    value {
      list {
        shape {
          dim {
            size: 128
          }
        }
      }
    }
  }
  attr {
    key: "dtype"
    value {
      type: DT_FLOAT
    }
  }
}
node {
  name: "vgg19_encoder/block2_conv1/dilation_rate"
  op: "Const"
  input: "^Identity_1"
  attr {
    key: "_output_shapes"
    value {
      list {
        shape {
          dim {
            size: 2
          }
        }
      }
    }
  }
  attr {
    key: "_tpu_replicate"
    value {
      s: "cluster"
    }
  }
  attr {
    key: "dtype"
    value {
      type: DT_INT32
    }
  }
  attr {
    key: "value"
    value {
      tensor {
        dtype: DT_INT32
        tensor_shape {
          dim {
            size: 2
          }
        }
        tensor_content: "\001\000\000\000\001\000\000\000"
      }
    }
  }
}
node {
  name: "vgg19_encoder/block2_conv1/Conv2D/ReadVariableOp"
  op: "ReadVariableOp"
  input: "vgg19_encoder/block2_conv1/Conv2D/ReadVariableOp/Enter"
  input: "^Identity_1"
  attr {
    key: "_output_shapes"
    value {
      list {
        shape {
          dim {
            size: 3
          }
          dim {
            size: 3
          }
          dim {
            size: 64
          }
          dim {
            size: 128
          }
        }
      }
    }
  }
  attr {
    key: "_tpu_replicate"
    value {
      s: "cluster"
    }
  }
  attr {
    key: "dtype"
    value {
      type: DT_FLOAT
    }
  }
}
node {
  name: "vgg19_encoder/block2_conv1/Conv2D/ReadVariableOp/Enter"
  op: "Enter"
  input: "vgg19_encoder/block2_conv1/kernel"
  input: "^TPUReplicateMetadata"
  attr {
    key: "T"
    value {
      type: DT_RESOURCE
    }
  }
  attr {
    key: "_output_shapes"
    value {
      list {
        shape {
        }
      }
    }
  }
  attr {
    key: "_tpu_replicate"
    value {
      s: "cluster"
    }
  }
  attr {
    key: "frame_name"
    value {
      s: "while_context"
    }
  }
  attr {
    key: "is_constant"
    value {
      b: true
    }
  }
  attr {
    key: "parallel_iterations"
    value {
      i: 10
    }
  }
}
node {
  name: "vgg19_encoder/block2_conv1/Conv2D"
  op: "Conv2D"
  input: "vgg19_encoder/block1_pool/MaxPool"
  input: "vgg19_encoder/block2_conv1/Conv2D/ReadVariableOp"
  attr {
    key: "T"
    value {
      type: DT_FLOAT
    }
  }
  attr {
    key: "_output_shapes"
    value {
      list {
        shape {
          dim {
            size: 16
          }
          dim {
            size: 128
          }
          dim {
            size: 128
          }
          dim {
            size: 128
          }
        }
      }
    }
  }
  attr {
    key: "_tpu_replicate"
    value {
      s: "cluster"
    }
  }
  attr {
    key: "data_format"
    value {
      s: "NHWC"
    }
  }
  attr {
    key: "dilations"
    value {
      list {
        i: 1
        i: 1
        i: 1
        i: 1
      }
    }
  }
  attr {
    key: "padding"
    value {
      s: "SAME"
    }
  }
  attr {
    key: "strides"
    value {
      list {
        i: 1
        i: 1
        i: 1
        i: 1
      }
    }
  }
  attr {
    key: "use_cudnn_on_gpu"
    value {
      b: true
    }
  }
}
node {
  name: "vgg19_encoder/block2_conv1/BiasAdd/ReadVariableOp"
  op: "ReadVariableOp"
  input: "vgg19_encoder/block2_conv1/BiasAdd/ReadVariableOp/Enter"
  input: "^Identity_1"
  attr {
    key: "_output_shapes"
    value {
      list {
        shape {
          dim {
            size: 128
          }
        }
      }
    }
  }
  attr {
    key: "_tpu_replicate"
    value {
      s: "cluster"
    }
  }
  attr {
    key: "dtype"
    value {
      type: DT_FLOAT
    }
  }
}
node {
  name: "vgg19_encoder/block2_conv1/BiasAdd/ReadVariableOp/Enter"
  op: "Enter"
  input: "vgg19_encoder/block2_conv1/bias"
  input: "^TPUReplicateMetadata"
  attr {
    key: "T"
    value {
      type: DT_RESOURCE
    }
  }
  attr {
    key: "_output_shapes"
    value {
      list {
        shape {
        }
      }
    }
  }
  attr {
    key: "_tpu_replicate"
    value {
      s: "cluster"
    }
  }
  attr {
    key: "frame_name"
    value {
      s: "while_context"
    }
  }
  attr {
    key: "is_constant"
    value {
      b: true
    }
  }
  attr {
    key: "parallel_iterations"
    value {
      i: 10
    }
  }
}
node {
  name: "vgg19_encoder/block2_conv1/BiasAdd"
  op: "BiasAdd"
  input: "vgg19_encoder/block2_conv1/Conv2D"
  input: "vgg19_encoder/block2_conv1/BiasAdd/ReadVariableOp"
  attr {
    key: "T"
    value {
      type: DT_FLOAT
    }
  }
  attr {
    key: "_output_shapes"
    value {
      list {
        shape {
          dim {
            size: 16
          }
          dim {
            size: 128
          }
          dim {
            size: 128
          }
          dim {
            size: 128
          }
        }
      }
    }
  }
  attr {
    key: "_tpu_replicate"
    value {
      s: "cluster"
    }
  }
  attr {
    key: "data_format"
    value {
      s: "NHWC"
    }
  }
}
node {
  name: "vgg19_encoder/block2_conv1/Relu"
  op: "Relu"
  input: "vgg19_encoder/block2_conv1/BiasAdd"
  attr {
    key: "T"
    value {
      type: DT_FLOAT
    }
  }
  attr {
    key: "_output_shapes"
    value {
      list {
        shape {
          dim {
            size: 16
          }
          dim {
            size: 128
          }
          dim {
            size: 128
          }
          dim {
            size: 128
          }
        }
      }
    }
  }
  attr {
    key: "_tpu_replicate"
    value {
      s: "cluster"
    }
  }
}
node {
  name: "vgg19_encoder/block2_conv2/kernel/Initializer/random_uniform/shape"
  op: "Const"
  attr {
    key: "_class"
    value {
      list {
        s: "loc:@vgg19_encoder/block2_conv2/kernel"
      }
    }
  }
  attr {
    key: "_output_shapes"
    value {
      list {
        shape {
          dim {
            size: 4
          }
        }
      }
    }
  }
  attr {
    key: "dtype"
    value {
      type: DT_INT32
    }
  }
  attr {
    key: "value"
    value {
      tensor {
        dtype: DT_INT32
        tensor_shape {
          dim {
            size: 4
          }
        }
        tensor_content: "\003\000\000\000\003\000\000\000\200\000\000\000\200\000\000\000"
      }
    }
  }
}
node {
  name: "vgg19_encoder/block2_conv2/kernel/Initializer/random_uniform/min"
  op: "Const"
  attr {
    key: "_class"
    value {
      list {
        s: "loc:@vgg19_encoder/block2_conv2/kernel"
      }
    }
  }
  attr {
    key: "_output_shapes"
    value {
      list {
        shape {
        }
      }
    }
  }
  attr {
    key: "dtype"
    value {
      type: DT_FLOAT
    }
  }
  attr {
    key: "value"
    value {
      tensor {
        dtype: DT_FLOAT
        tensor_shape {
        }
        float_val: -0.05103103816509247
      }
    }
  }
}
node {
  name: "vgg19_encoder/block2_conv2/kernel/Initializer/random_uniform/max"
  op: "Const"
  attr {
    key: "_class"
    value {
      list {
        s: "loc:@vgg19_encoder/block2_conv2/kernel"
      }
    }
  }
  attr {
    key: "_output_shapes"
    value {
      list {
        shape {
        }
      }
    }
  }
  attr {
    key: "dtype"
    value {
      type: DT_FLOAT
    }
  }
  attr {
    key: "value"
    value {
      tensor {
        dtype: DT_FLOAT
        tensor_shape {
        }
        float_val: 0.05103103816509247
      }
    }
  }
}
node {
  name: "vgg19_encoder/block2_conv2/kernel/Initializer/random_uniform/RandomUniform"
  op: "RandomUniform"
  input: "vgg19_encoder/block2_conv2/kernel/Initializer/random_uniform/shape"
  attr {
    key: "T"
    value {
      type: DT_INT32
    }
  }
  attr {
    key: "_class"
    value {
      list {
        s: "loc:@vgg19_encoder/block2_conv2/kernel"
      }
    }
  }
  attr {
    key: "_output_shapes"
    value {
      list {
        shape {
          dim {
            size: 3
          }
          dim {
            size: 3
          }
          dim {
            size: 128
          }
          dim {
            size: 128
          }
        }
      }
    }
  }
  attr {
    key: "dtype"
    value {
      type: DT_FLOAT
    }
  }
  attr {
    key: "seed"
    value {
      i: 0
    }
  }
  attr {
    key: "seed2"
    value {
      i: 0
    }
  }
}
node {
  name: "vgg19_encoder/block2_conv2/kernel/Initializer/random_uniform/sub"
  op: "Sub"
  input: "vgg19_encoder/block2_conv2/kernel/Initializer/random_uniform/max"
  input: "vgg19_encoder/block2_conv2/kernel/Initializer/random_uniform/min"
  attr {
    key: "T"
    value {
      type: DT_FLOAT
    }
  }
  attr {
    key: "_class"
    value {
      list {
        s: "loc:@vgg19_encoder/block2_conv2/kernel"
      }
    }
  }
  attr {
    key: "_output_shapes"
    value {
      list {
        shape {
        }
      }
    }
  }
}
node {
  name: "vgg19_encoder/block2_conv2/kernel/Initializer/random_uniform/mul"
  op: "Mul"
  input: "vgg19_encoder/block2_conv2/kernel/Initializer/random_uniform/RandomUniform"
  input: "vgg19_encoder/block2_conv2/kernel/Initializer/random_uniform/sub"
  attr {
    key: "T"
    value {
      type: DT_FLOAT
    }
  }
  attr {
    key: "_class"
    value {
      list {
        s: "loc:@vgg19_encoder/block2_conv2/kernel"
      }
    }
  }
  attr {
    key: "_output_shapes"
    value {
      list {
        shape {
          dim {
            size: 3
          }
          dim {
            size: 3
          }
          dim {
            size: 128
          }
          dim {
            size: 128
          }
        }
      }
    }
  }
}
node {
  name: "vgg19_encoder/block2_conv2/kernel/Initializer/random_uniform"
  op: "Add"
  input: "vgg19_encoder/block2_conv2/kernel/Initializer/random_uniform/mul"
  input: "vgg19_encoder/block2_conv2/kernel/Initializer/random_uniform/min"
  attr {
    key: "T"
    value {
      type: DT_FLOAT
    }
  }
  attr {
    key: "_class"
    value {
      list {
        s: "loc:@vgg19_encoder/block2_conv2/kernel"
      }
    }
  }
  attr {
    key: "_output_shapes"
    value {
      list {
        shape {
          dim {
            size: 3
          }
          dim {
            size: 3
          }
          dim {
            size: 128
          }
          dim {
            size: 128
          }
        }
      }
    }
  }
}
node {
  name: "vgg19_encoder/block2_conv2/kernel"
  op: "VarHandleOp"
  attr {
    key: "_class"
    value {
      list {
        s: "loc:@vgg19_encoder/block2_conv2/kernel"
      }
    }
  }
  attr {
    key: "_output_shapes"
    value {
      list {
        shape {
        }
      }
    }
  }
  attr {
    key: "container"
    value {
      s: ""
    }
  }
  attr {
    key: "dtype"
    value {
      type: DT_FLOAT
    }
  }
  attr {
    key: "shape"
    value {
      shape {
        dim {
          size: 3
        }
        dim {
          size: 3
        }
        dim {
          size: 128
        }
        dim {
          size: 128
        }
      }
    }
  }
  attr {
    key: "shared_name"
    value {
      s: "vgg19_encoder/block2_conv2/kernel"
    }
  }
}
node {
  name: "vgg19_encoder/block2_conv2/kernel/IsInitialized/VarIsInitializedOp"
  op: "VarIsInitializedOp"
  input: "vgg19_encoder/block2_conv2/kernel"
  attr {
    key: "_output_shapes"
    value {
      list {
        shape {
        }
      }
    }
  }
}
node {
  name: "vgg19_encoder/block2_conv2/kernel/Assign"
  op: "AssignVariableOp"
  input: "vgg19_encoder/block2_conv2/kernel"
  input: "vgg19_encoder/block2_conv2/kernel/Initializer/random_uniform"
  attr {
    key: "_class"
    value {
      list {
        s: "loc:@vgg19_encoder/block2_conv2/kernel"
      }
    }
  }
  attr {
    key: "dtype"
    value {
      type: DT_FLOAT
    }
  }
}
node {
  name: "vgg19_encoder/block2_conv2/kernel/Read/ReadVariableOp"
  op: "ReadVariableOp"
  input: "vgg19_encoder/block2_conv2/kernel"
  attr {
    key: "_class"
    value {
      list {
        s: "loc:@vgg19_encoder/block2_conv2/kernel"
      }
    }
  }
  attr {
    key: "_output_shapes"
    value {
      list {
        shape {
          dim {
            size: 3
          }
          dim {
            size: 3
          }
          dim {
            size: 128
          }
          dim {
            size: 128
          }
        }
      }
    }
  }
  attr {
    key: "dtype"
    value {
      type: DT_FLOAT
    }
  }
}
node {
  name: "vgg19_encoder/block2_conv2/bias/Initializer/zeros"
  op: "Const"
  attr {
    key: "_class"
    value {
      list {
        s: "loc:@vgg19_encoder/block2_conv2/bias"
      }
    }
  }
  attr {
    key: "_output_shapes"
    value {
      list {
        shape {
          dim {
            size: 128
          }
        }
      }
    }
  }
  attr {
    key: "dtype"
    value {
      type: DT_FLOAT
    }
  }
  attr {
    key: "value"
    value {
      tensor {
        dtype: DT_FLOAT
        tensor_shape {
          dim {
            size: 128
          }
        }
        float_val: 0.0
      }
    }
  }
}
node {
  name: "vgg19_encoder/block2_conv2/bias"
  op: "VarHandleOp"
  attr {
    key: "_class"
    value {
      list {
        s: "loc:@vgg19_encoder/block2_conv2/bias"
      }
    }
  }
  attr {
    key: "_output_shapes"
    value {
      list {
        shape {
        }
      }
    }
  }
  attr {
    key: "container"
    value {
      s: ""
    }
  }
  attr {
    key: "dtype"
    value {
      type: DT_FLOAT
    }
  }
  attr {
    key: "shape"
    value {
      shape {
        dim {
          size: 128
        }
      }
    }
  }
  attr {
    key: "shared_name"
    value {
      s: "vgg19_encoder/block2_conv2/bias"
    }
  }
}
node {
  name: "vgg19_encoder/block2_conv2/bias/IsInitialized/VarIsInitializedOp"
  op: "VarIsInitializedOp"
  input: "vgg19_encoder/block2_conv2/bias"
  attr {
    key: "_output_shapes"
    value {
      list {
        shape {
        }
      }
    }
  }
}
node {
  name: "vgg19_encoder/block2_conv2/bias/Assign"
  op: "AssignVariableOp"
  input: "vgg19_encoder/block2_conv2/bias"
  input: "vgg19_encoder/block2_conv2/bias/Initializer/zeros"
  attr {
    key: "_class"
    value {
      list {
        s: "loc:@vgg19_encoder/block2_conv2/bias"
      }
    }
  }
  attr {
    key: "dtype"
    value {
      type: DT_FLOAT
    }
  }
}
node {
  name: "vgg19_encoder/block2_conv2/bias/Read/ReadVariableOp"
  op: "ReadVariableOp"
  input: "vgg19_encoder/block2_conv2/bias"
  attr {
    key: "_class"
    value {
      list {
        s: "loc:@vgg19_encoder/block2_conv2/bias"
      }
    }
  }
  attr {
    key: "_output_shapes"
    value {
      list {
        shape {
          dim {
            size: 128
          }
        }
      }
    }
  }
  attr {
    key: "dtype"
    value {
      type: DT_FLOAT
    }
  }
}
node {
  name: "vgg19_encoder/block2_conv2/dilation_rate"
  op: "Const"
  input: "^Identity_1"
  attr {
    key: "_output_shapes"
    value {
      list {
        shape {
          dim {
            size: 2
          }
        }
      }
    }
  }
  attr {
    key: "_tpu_replicate"
    value {
      s: "cluster"
    }
  }
  attr {
    key: "dtype"
    value {
      type: DT_INT32
    }
  }
  attr {
    key: "value"
    value {
      tensor {
        dtype: DT_INT32
        tensor_shape {
          dim {
            size: 2
          }
        }
        tensor_content: "\001\000\000\000\001\000\000\000"
      }
    }
  }
}
node {
  name: "vgg19_encoder/block2_conv2/Conv2D/ReadVariableOp"
  op: "ReadVariableOp"
  input: "vgg19_encoder/block2_conv2/Conv2D/ReadVariableOp/Enter"
  input: "^Identity_1"
  attr {
    key: "_output_shapes"
    value {
      list {
        shape {
          dim {
            size: 3
          }
          dim {
            size: 3
          }
          dim {
            size: 128
          }
          dim {
            size: 128
          }
        }
      }
    }
  }
  attr {
    key: "_tpu_replicate"
    value {
      s: "cluster"
    }
  }
  attr {
    key: "dtype"
    value {
      type: DT_FLOAT
    }
  }
}
node {
  name: "vgg19_encoder/block2_conv2/Conv2D/ReadVariableOp/Enter"
  op: "Enter"
  input: "vgg19_encoder/block2_conv2/kernel"
  input: "^TPUReplicateMetadata"
  attr {
    key: "T"
    value {
      type: DT_RESOURCE
    }
  }
  attr {
    key: "_output_shapes"
    value {
      list {
        shape {
        }
      }
    }
  }
  attr {
    key: "_tpu_replicate"
    value {
      s: "cluster"
    }
  }
  attr {
    key: "frame_name"
    value {
      s: "while_context"
    }
  }
  attr {
    key: "is_constant"
    value {
      b: true
    }
  }
  attr {
    key: "parallel_iterations"
    value {
      i: 10
    }
  }
}
node {
  name: "vgg19_encoder/block2_conv2/Conv2D"
  op: "Conv2D"
  input: "vgg19_encoder/block2_conv1/Relu"
  input: "vgg19_encoder/block2_conv2/Conv2D/ReadVariableOp"
  attr {
    key: "T"
    value {
      type: DT_FLOAT
    }
  }
  attr {
    key: "_output_shapes"
    value {
      list {
        shape {
          dim {
            size: 16
          }
          dim {
            size: 128
          }
          dim {
            size: 128
          }
          dim {
            size: 128
          }
        }
      }
    }
  }
  attr {
    key: "_tpu_replicate"
    value {
      s: "cluster"
    }
  }
  attr {
    key: "data_format"
    value {
      s: "NHWC"
    }
  }
  attr {
    key: "dilations"
    value {
      list {
        i: 1
        i: 1
        i: 1
        i: 1
      }
    }
  }
  attr {
    key: "padding"
    value {
      s: "SAME"
    }
  }
  attr {
    key: "strides"
    value {
      list {
        i: 1
        i: 1
        i: 1
        i: 1
      }
    }
  }
  attr {
    key: "use_cudnn_on_gpu"
    value {
      b: true
    }
  }
}
node {
  name: "vgg19_encoder/block2_conv2/BiasAdd/ReadVariableOp"
  op: "ReadVariableOp"
  input: "vgg19_encoder/block2_conv2/BiasAdd/ReadVariableOp/Enter"
  input: "^Identity_1"
  attr {
    key: "_output_shapes"
    value {
      list {
        shape {
          dim {
            size: 128
          }
        }
      }
    }
  }
  attr {
    key: "_tpu_replicate"
    value {
      s: "cluster"
    }
  }
  attr {
    key: "dtype"
    value {
      type: DT_FLOAT
    }
  }
}
node {
  name: "vgg19_encoder/block2_conv2/BiasAdd/ReadVariableOp/Enter"
  op: "Enter"
  input: "vgg19_encoder/block2_conv2/bias"
  input: "^TPUReplicateMetadata"
  attr {
    key: "T"
    value {
      type: DT_RESOURCE
    }
  }
  attr {
    key: "_output_shapes"
    value {
      list {
        shape {
        }
      }
    }
  }
  attr {
    key: "_tpu_replicate"
    value {
      s: "cluster"
    }
  }
  attr {
    key: "frame_name"
    value {
      s: "while_context"
    }
  }
  attr {
    key: "is_constant"
    value {
      b: true
    }
  }
  attr {
    key: "parallel_iterations"
    value {
      i: 10
    }
  }
}
node {
  name: "vgg19_encoder/block2_conv2/BiasAdd"
  op: "BiasAdd"
  input: "vgg19_encoder/block2_conv2/Conv2D"
  input: "vgg19_encoder/block2_conv2/BiasAdd/ReadVariableOp"
  attr {
    key: "T"
    value {
      type: DT_FLOAT
    }
  }
  attr {
    key: "_output_shapes"
    value {
      list {
        shape {
          dim {
            size: 16
          }
          dim {
            size: 128
          }
          dim {
            size: 128
          }
          dim {
            size: 128
          }
        }
      }
    }
  }
  attr {
    key: "_tpu_replicate"
    value {
      s: "cluster"
    }
  }
  attr {
    key: "data_format"
    value {
      s: "NHWC"
    }
  }
}
node {
  name: "vgg19_encoder/block2_conv2/Relu"
  op: "Relu"
  input: "vgg19_encoder/block2_conv2/BiasAdd"
  attr {
    key: "T"
    value {
      type: DT_FLOAT
    }
  }
  attr {
    key: "_output_shapes"
    value {
      list {
        shape {
          dim {
            size: 16
          }
          dim {
            size: 128
          }
          dim {
            size: 128
          }
          dim {
            size: 128
          }
        }
      }
    }
  }
  attr {
    key: "_tpu_replicate"
    value {
      s: "cluster"
    }
  }
}
node {
  name: "vgg19_encoder/block2_pool/MaxPool"
  op: "MaxPool"
  input: "vgg19_encoder/block2_conv2/Relu"
  attr {
    key: "T"
    value {
      type: DT_FLOAT
    }
  }
  attr {
    key: "_output_shapes"
    value {
      list {
        shape {
          dim {
            size: 16
          }
          dim {
            size: 64
          }
          dim {
            size: 64
          }
          dim {
            size: 128
          }
        }
      }
    }
  }
  attr {
    key: "_tpu_replicate"
    value {
      s: "cluster"
    }
  }
  attr {
    key: "data_format"
    value {
      s: "NHWC"
    }
  }
  attr {
    key: "ksize"
    value {
      list {
        i: 1
        i: 2
        i: 2
        i: 1
      }
    }
  }
  attr {
    key: "padding"
    value {
      s: "VALID"
    }
  }
  attr {
    key: "strides"
    value {
      list {
        i: 1
        i: 2
        i: 2
        i: 1
      }
    }
  }
}
node {
  name: "vgg19_encoder/block3_conv1/kernel/Initializer/random_uniform/shape"
  op: "Const"
  attr {
    key: "_class"
    value {
      list {
        s: "loc:@vgg19_encoder/block3_conv1/kernel"
      }
    }
  }
  attr {
    key: "_output_shapes"
    value {
      list {
        shape {
          dim {
            size: 4
          }
        }
      }
    }
  }
  attr {
    key: "dtype"
    value {
      type: DT_INT32
    }
  }
  attr {
    key: "value"
    value {
      tensor {
        dtype: DT_INT32
        tensor_shape {
          dim {
            size: 4
          }
        }
        tensor_content: "\003\000\000\000\003\000\000\000\200\000\000\000\000\001\000\000"
      }
    }
  }
}
node {
  name: "vgg19_encoder/block3_conv1/kernel/Initializer/random_uniform/min"
  op: "Const"
  attr {
    key: "_class"
    value {
      list {
        s: "loc:@vgg19_encoder/block3_conv1/kernel"
      }
    }
  }
  attr {
    key: "_output_shapes"
    value {
      list {
        shape {
        }
      }
    }
  }
  attr {
    key: "dtype"
    value {
      type: DT_FLOAT
    }
  }
  attr {
    key: "value"
    value {
      tensor {
        dtype: DT_FLOAT
        tensor_shape {
        }
        float_val: -0.0416666679084301
      }
    }
  }
}
node {
  name: "vgg19_encoder/block3_conv1/kernel/Initializer/random_uniform/max"
  op: "Const"
  attr {
    key: "_class"
    value {
      list {
        s: "loc:@vgg19_encoder/block3_conv1/kernel"
      }
    }
  }
  attr {
    key: "_output_shapes"
    value {
      list {
        shape {
        }
      }
    }
  }
  attr {
    key: "dtype"
    value {
      type: DT_FLOAT
    }
  }
  attr {
    key: "value"
    value {
      tensor {
        dtype: DT_FLOAT
        tensor_shape {
        }
        float_val: 0.0416666679084301
      }
    }
  }
}
node {
  name: "vgg19_encoder/block3_conv1/kernel/Initializer/random_uniform/RandomUniform"
  op: "RandomUniform"
  input: "vgg19_encoder/block3_conv1/kernel/Initializer/random_uniform/shape"
  attr {
    key: "T"
    value {
      type: DT_INT32
    }
  }
  attr {
    key: "_class"
    value {
      list {
        s: "loc:@vgg19_encoder/block3_conv1/kernel"
      }
    }
  }
  attr {
    key: "_output_shapes"
    value {
      list {
        shape {
          dim {
            size: 3
          }
          dim {
            size: 3
          }
          dim {
            size: 128
          }
          dim {
            size: 256
          }
        }
      }
    }
  }
  attr {
    key: "dtype"
    value {
      type: DT_FLOAT
    }
  }
  attr {
    key: "seed"
    value {
      i: 0
    }
  }
  attr {
    key: "seed2"
    value {
      i: 0
    }
  }
}
node {
  name: "vgg19_encoder/block3_conv1/kernel/Initializer/random_uniform/sub"
  op: "Sub"
  input: "vgg19_encoder/block3_conv1/kernel/Initializer/random_uniform/max"
  input: "vgg19_encoder/block3_conv1/kernel/Initializer/random_uniform/min"
  attr {
    key: "T"
    value {
      type: DT_FLOAT
    }
  }
  attr {
    key: "_class"
    value {
      list {
        s: "loc:@vgg19_encoder/block3_conv1/kernel"
      }
    }
  }
  attr {
    key: "_output_shapes"
    value {
      list {
        shape {
        }
      }
    }
  }
}
node {
  name: "vgg19_encoder/block3_conv1/kernel/Initializer/random_uniform/mul"
  op: "Mul"
  input: "vgg19_encoder/block3_conv1/kernel/Initializer/random_uniform/RandomUniform"
  input: "vgg19_encoder/block3_conv1/kernel/Initializer/random_uniform/sub"
  attr {
    key: "T"
    value {
      type: DT_FLOAT
    }
  }
  attr {
    key: "_class"
    value {
      list {
        s: "loc:@vgg19_encoder/block3_conv1/kernel"
      }
    }
  }
  attr {
    key: "_output_shapes"
    value {
      list {
        shape {
          dim {
            size: 3
          }
          dim {
            size: 3
          }
          dim {
            size: 128
          }
          dim {
            size: 256
          }
        }
      }
    }
  }
}
node {
  name: "vgg19_encoder/block3_conv1/kernel/Initializer/random_uniform"
  op: "Add"
  input: "vgg19_encoder/block3_conv1/kernel/Initializer/random_uniform/mul"
  input: "vgg19_encoder/block3_conv1/kernel/Initializer/random_uniform/min"
  attr {
    key: "T"
    value {
      type: DT_FLOAT
    }
  }
  attr {
    key: "_class"
    value {
      list {
        s: "loc:@vgg19_encoder/block3_conv1/kernel"
      }
    }
  }
  attr {
    key: "_output_shapes"
    value {
      list {
        shape {
          dim {
            size: 3
          }
          dim {
            size: 3
          }
          dim {
            size: 128
          }
          dim {
            size: 256
          }
        }
      }
    }
  }
}
node {
  name: "vgg19_encoder/block3_conv1/kernel"
  op: "VarHandleOp"
  attr {
    key: "_class"
    value {
      list {
        s: "loc:@vgg19_encoder/block3_conv1/kernel"
      }
    }
  }
  attr {
    key: "_output_shapes"
    value {
      list {
        shape {
        }
      }
    }
  }
  attr {
    key: "container"
    value {
      s: ""
    }
  }
  attr {
    key: "dtype"
    value {
      type: DT_FLOAT
    }
  }
  attr {
    key: "shape"
    value {
      shape {
        dim {
          size: 3
        }
        dim {
          size: 3
        }
        dim {
          size: 128
        }
        dim {
          size: 256
        }
      }
    }
  }
  attr {
    key: "shared_name"
    value {
      s: "vgg19_encoder/block3_conv1/kernel"
    }
  }
}
node {
  name: "vgg19_encoder/block3_conv1/kernel/IsInitialized/VarIsInitializedOp"
  op: "VarIsInitializedOp"
  input: "vgg19_encoder/block3_conv1/kernel"
  attr {
    key: "_output_shapes"
    value {
      list {
        shape {
        }
      }
    }
  }
}
node {
  name: "vgg19_encoder/block3_conv1/kernel/Assign"
  op: "AssignVariableOp"
  input: "vgg19_encoder/block3_conv1/kernel"
  input: "vgg19_encoder/block3_conv1/kernel/Initializer/random_uniform"
  attr {
    key: "_class"
    value {
      list {
        s: "loc:@vgg19_encoder/block3_conv1/kernel"
      }
    }
  }
  attr {
    key: "dtype"
    value {
      type: DT_FLOAT
    }
  }
}
node {
  name: "vgg19_encoder/block3_conv1/kernel/Read/ReadVariableOp"
  op: "ReadVariableOp"
  input: "vgg19_encoder/block3_conv1/kernel"
  attr {
    key: "_class"
    value {
      list {
        s: "loc:@vgg19_encoder/block3_conv1/kernel"
      }
    }
  }
  attr {
    key: "_output_shapes"
    value {
      list {
        shape {
          dim {
            size: 3
          }
          dim {
            size: 3
          }
          dim {
            size: 128
          }
          dim {
            size: 256
          }
        }
      }
    }
  }
  attr {
    key: "dtype"
    value {
      type: DT_FLOAT
    }
  }
}
node {
  name: "vgg19_encoder/block3_conv1/bias/Initializer/zeros"
  op: "Const"
  attr {
    key: "_class"
    value {
      list {
        s: "loc:@vgg19_encoder/block3_conv1/bias"
      }
    }
  }
  attr {
    key: "_output_shapes"
    value {
      list {
        shape {
          dim {
            size: 256
          }
        }
      }
    }
  }
  attr {
    key: "dtype"
    value {
      type: DT_FLOAT
    }
  }
  attr {
    key: "value"
    value {
      tensor {
        dtype: DT_FLOAT
        tensor_shape {
          dim {
            size: 256
          }
        }
        float_val: 0.0
      }
    }
  }
}
node {
  name: "vgg19_encoder/block3_conv1/bias"
  op: "VarHandleOp"
  attr {
    key: "_class"
    value {
      list {
        s: "loc:@vgg19_encoder/block3_conv1/bias"
      }
    }
  }
  attr {
    key: "_output_shapes"
    value {
      list {
        shape {
        }
      }
    }
  }
  attr {
    key: "container"
    value {
      s: ""
    }
  }
  attr {
    key: "dtype"
    value {
      type: DT_FLOAT
    }
  }
  attr {
    key: "shape"
    value {
      shape {
        dim {
          size: 256
        }
      }
    }
  }
  attr {
    key: "shared_name"
    value {
      s: "vgg19_encoder/block3_conv1/bias"
    }
  }
}
node {
  name: "vgg19_encoder/block3_conv1/bias/IsInitialized/VarIsInitializedOp"
  op: "VarIsInitializedOp"
  input: "vgg19_encoder/block3_conv1/bias"
  attr {
    key: "_output_shapes"
    value {
      list {
        shape {
        }
      }
    }
  }
}
node {
  name: "vgg19_encoder/block3_conv1/bias/Assign"
  op: "AssignVariableOp"
  input: "vgg19_encoder/block3_conv1/bias"
  input: "vgg19_encoder/block3_conv1/bias/Initializer/zeros"
  attr {
    key: "_class"
    value {
      list {
        s: "loc:@vgg19_encoder/block3_conv1/bias"
      }
    }
  }
  attr {
    key: "dtype"
    value {
      type: DT_FLOAT
    }
  }
}
node {
  name: "vgg19_encoder/block3_conv1/bias/Read/ReadVariableOp"
  op: "ReadVariableOp"
  input: "vgg19_encoder/block3_conv1/bias"
  attr {
    key: "_class"
    value {
      list {
        s: "loc:@vgg19_encoder/block3_conv1/bias"
      }
    }
  }
  attr {
    key: "_output_shapes"
    value {
      list {
        shape {
          dim {
            size: 256
          }
        }
      }
    }
  }
  attr {
    key: "dtype"
    value {
      type: DT_FLOAT
    }
  }
}
node {
  name: "vgg19_encoder/block3_conv1/dilation_rate"
  op: "Const"
  input: "^Identity_1"
  attr {
    key: "_output_shapes"
    value {
      list {
        shape {
          dim {
            size: 2
          }
        }
      }
    }
  }
  attr {
    key: "_tpu_replicate"
    value {
      s: "cluster"
    }
  }
  attr {
    key: "dtype"
    value {
      type: DT_INT32
    }
  }
  attr {
    key: "value"
    value {
      tensor {
        dtype: DT_INT32
        tensor_shape {
          dim {
            size: 2
          }
        }
        tensor_content: "\001\000\000\000\001\000\000\000"
      }
    }
  }
}
node {
  name: "vgg19_encoder/block3_conv1/Conv2D/ReadVariableOp"
  op: "ReadVariableOp"
  input: "vgg19_encoder/block3_conv1/Conv2D/ReadVariableOp/Enter"
  input: "^Identity_1"
  attr {
    key: "_output_shapes"
    value {
      list {
        shape {
          dim {
            size: 3
          }
          dim {
            size: 3
          }
          dim {
            size: 128
          }
          dim {
            size: 256
          }
        }
      }
    }
  }
  attr {
    key: "_tpu_replicate"
    value {
      s: "cluster"
    }
  }
  attr {
    key: "dtype"
    value {
      type: DT_FLOAT
    }
  }
}
node {
  name: "vgg19_encoder/block3_conv1/Conv2D/ReadVariableOp/Enter"
  op: "Enter"
  input: "vgg19_encoder/block3_conv1/kernel"
  input: "^TPUReplicateMetadata"
  attr {
    key: "T"
    value {
      type: DT_RESOURCE
    }
  }
  attr {
    key: "_output_shapes"
    value {
      list {
        shape {
        }
      }
    }
  }
  attr {
    key: "_tpu_replicate"
    value {
      s: "cluster"
    }
  }
  attr {
    key: "frame_name"
    value {
      s: "while_context"
    }
  }
  attr {
    key: "is_constant"
    value {
      b: true
    }
  }
  attr {
    key: "parallel_iterations"
    value {
      i: 10
    }
  }
}
node {
  name: "vgg19_encoder/block3_conv1/Conv2D"
  op: "Conv2D"
  input: "vgg19_encoder/block2_pool/MaxPool"
  input: "vgg19_encoder/block3_conv1/Conv2D/ReadVariableOp"
  attr {
    key: "T"
    value {
      type: DT_FLOAT
    }
  }
  attr {
    key: "_output_shapes"
    value {
      list {
        shape {
          dim {
            size: 16
          }
          dim {
            size: 64
          }
          dim {
            size: 64
          }
          dim {
            size: 256
          }
        }
      }
    }
  }
  attr {
    key: "_tpu_replicate"
    value {
      s: "cluster"
    }
  }
  attr {
    key: "data_format"
    value {
      s: "NHWC"
    }
  }
  attr {
    key: "dilations"
    value {
      list {
        i: 1
        i: 1
        i: 1
        i: 1
      }
    }
  }
  attr {
    key: "padding"
    value {
      s: "SAME"
    }
  }
  attr {
    key: "strides"
    value {
      list {
        i: 1
        i: 1
        i: 1
        i: 1
      }
    }
  }
  attr {
    key: "use_cudnn_on_gpu"
    value {
      b: true
    }
  }
}
node {
  name: "vgg19_encoder/block3_conv1/BiasAdd/ReadVariableOp"
  op: "ReadVariableOp"
  input: "vgg19_encoder/block3_conv1/BiasAdd/ReadVariableOp/Enter"
  input: "^Identity_1"
  attr {
    key: "_output_shapes"
    value {
      list {
        shape {
          dim {
            size: 256
          }
        }
      }
    }
  }
  attr {
    key: "_tpu_replicate"
    value {
      s: "cluster"
    }
  }
  attr {
    key: "dtype"
    value {
      type: DT_FLOAT
    }
  }
}
node {
  name: "vgg19_encoder/block3_conv1/BiasAdd/ReadVariableOp/Enter"
  op: "Enter"
  input: "vgg19_encoder/block3_conv1/bias"
  input: "^TPUReplicateMetadata"
  attr {
    key: "T"
    value {
      type: DT_RESOURCE
    }
  }
  attr {
    key: "_output_shapes"
    value {
      list {
        shape {
        }
      }
    }
  }
  attr {
    key: "_tpu_replicate"
    value {
      s: "cluster"
    }
  }
  attr {
    key: "frame_name"
    value {
      s: "while_context"
    }
  }
  attr {
    key: "is_constant"
    value {
      b: true
    }
  }
  attr {
    key: "parallel_iterations"
    value {
      i: 10
    }
  }
}
node {
  name: "vgg19_encoder/block3_conv1/BiasAdd"
  op: "BiasAdd"
  input: "vgg19_encoder/block3_conv1/Conv2D"
  input: "vgg19_encoder/block3_conv1/BiasAdd/ReadVariableOp"
  attr {
    key: "T"
    value {
      type: DT_FLOAT
    }
  }
  attr {
    key: "_output_shapes"
    value {
      list {
        shape {
          dim {
            size: 16
          }
          dim {
            size: 64
          }
          dim {
            size: 64
          }
          dim {
            size: 256
          }
        }
      }
    }
  }
  attr {
    key: "_tpu_replicate"
    value {
      s: "cluster"
    }
  }
  attr {
    key: "data_format"
    value {
      s: "NHWC"
    }
  }
}
node {
  name: "vgg19_encoder/block3_conv1/Relu"
  op: "Relu"
  input: "vgg19_encoder/block3_conv1/BiasAdd"
  attr {
    key: "T"
    value {
      type: DT_FLOAT
    }
  }
  attr {
    key: "_output_shapes"
    value {
      list {
        shape {
          dim {
            size: 16
          }
          dim {
            size: 64
          }
          dim {
            size: 64
          }
          dim {
            size: 256
          }
        }
      }
    }
  }
  attr {
    key: "_tpu_replicate"
    value {
      s: "cluster"
    }
  }
}
node {
  name: "vgg19_encoder_1/block1_conv1/dilation_rate"
  op: "Const"
  input: "^Identity_1"
  attr {
    key: "_output_shapes"
    value {
      list {
        shape {
          dim {
            size: 2
          }
        }
      }
    }
  }
  attr {
    key: "_tpu_replicate"
    value {
      s: "cluster"
    }
  }
  attr {
    key: "dtype"
    value {
      type: DT_INT32
    }
  }
  attr {
    key: "value"
    value {
      tensor {
        dtype: DT_INT32
        tensor_shape {
          dim {
            size: 2
          }
        }
        tensor_content: "\001\000\000\000\001\000\000\000"
      }
    }
  }
}
node {
  name: "vgg19_encoder_1/block1_conv1/Conv2D/ReadVariableOp"
  op: "ReadVariableOp"
  input: "vgg19_encoder/block1_conv1/Conv2D/ReadVariableOp/Enter"
  input: "^Identity_1"
  attr {
    key: "_output_shapes"
    value {
      list {
        shape {
          dim {
            size: 3
          }
          dim {
            size: 3
          }
          dim {
            size: 3
          }
          dim {
            size: 64
          }
        }
      }
    }
  }
  attr {
    key: "_tpu_replicate"
    value {
      s: "cluster"
    }
  }
  attr {
    key: "dtype"
    value {
      type: DT_FLOAT
    }
  }
}
node {
  name: "vgg19_encoder_1/block1_conv1/Conv2D"
  op: "Conv2D"
  input: "InfeedQueue/dequeue:1"
  input: "vgg19_encoder_1/block1_conv1/Conv2D/ReadVariableOp"
  attr {
    key: "T"
    value {
      type: DT_FLOAT
    }
  }
  attr {
    key: "_output_shapes"
    value {
      list {
        shape {
          dim {
            size: 16
          }
          dim {
            size: 256
          }
          dim {
            size: 256
          }
          dim {
            size: 64
          }
        }
      }
    }
  }
  attr {
    key: "_tpu_replicate"
    value {
      s: "cluster"
    }
  }
  attr {
    key: "data_format"
    value {
      s: "NHWC"
    }
  }
  attr {
    key: "dilations"
    value {
      list {
        i: 1
        i: 1
        i: 1
        i: 1
      }
    }
  }
  attr {
    key: "padding"
    value {
      s: "SAME"
    }
  }
  attr {
    key: "strides"
    value {
      list {
        i: 1
        i: 1
        i: 1
        i: 1
      }
    }
  }
  attr {
    key: "use_cudnn_on_gpu"
    value {
      b: true
    }
  }
}
node {
  name: "vgg19_encoder_1/block1_conv1/BiasAdd/ReadVariableOp"
  op: "ReadVariableOp"
  input: "vgg19_encoder/block1_conv1/BiasAdd/ReadVariableOp/Enter"
  input: "^Identity_1"
  attr {
    key: "_output_shapes"
    value {
      list {
        shape {
          dim {
            size: 64
          }
        }
      }
    }
  }
  attr {
    key: "_tpu_replicate"
    value {
      s: "cluster"
    }
  }
  attr {
    key: "dtype"
    value {
      type: DT_FLOAT
    }
  }
}
node {
  name: "vgg19_encoder_1/block1_conv1/BiasAdd"
  op: "BiasAdd"
  input: "vgg19_encoder_1/block1_conv1/Conv2D"
  input: "vgg19_encoder_1/block1_conv1/BiasAdd/ReadVariableOp"
  attr {
    key: "T"
    value {
      type: DT_FLOAT
    }
  }
  attr {
    key: "_output_shapes"
    value {
      list {
        shape {
          dim {
            size: 16
          }
          dim {
            size: 256
          }
          dim {
            size: 256
          }
          dim {
            size: 64
          }
        }
      }
    }
  }
  attr {
    key: "_tpu_replicate"
    value {
      s: "cluster"
    }
  }
  attr {
    key: "data_format"
    value {
      s: "NHWC"
    }
  }
}
node {
  name: "vgg19_encoder_1/block1_conv1/Relu"
  op: "Relu"
  input: "vgg19_encoder_1/block1_conv1/BiasAdd"
  attr {
    key: "T"
    value {
      type: DT_FLOAT
    }
  }
  attr {
    key: "_output_shapes"
    value {
      list {
        shape {
          dim {
            size: 16
          }
          dim {
            size: 256
          }
          dim {
            size: 256
          }
          dim {
            size: 64
          }
        }
      }
    }
  }
  attr {
    key: "_tpu_replicate"
    value {
      s: "cluster"
    }
  }
}
node {
  name: "vgg19_encoder_1/block1_conv2/dilation_rate"
  op: "Const"
  input: "^Identity_1"
  attr {
    key: "_output_shapes"
    value {
      list {
        shape {
          dim {
            size: 2
          }
        }
      }
    }
  }
  attr {
    key: "_tpu_replicate"
    value {
      s: "cluster"
    }
  }
  attr {
    key: "dtype"
    value {
      type: DT_INT32
    }
  }
  attr {
    key: "value"
    value {
      tensor {
        dtype: DT_INT32
        tensor_shape {
          dim {
            size: 2
          }
        }
        tensor_content: "\001\000\000\000\001\000\000\000"
      }
    }
  }
}
node {
  name: "vgg19_encoder_1/block1_conv2/Conv2D/ReadVariableOp"
  op: "ReadVariableOp"
  input: "vgg19_encoder/block1_conv2/Conv2D/ReadVariableOp/Enter"
  input: "^Identity_1"
  attr {
    key: "_output_shapes"
    value {
      list {
        shape {
          dim {
            size: 3
          }
          dim {
            size: 3
          }
          dim {
            size: 64
          }
          dim {
            size: 64
          }
        }
      }
    }
  }
  attr {
    key: "_tpu_replicate"
    value {
      s: "cluster"
    }
  }
  attr {
    key: "dtype"
    value {
      type: DT_FLOAT
    }
  }
}
node {
  name: "vgg19_encoder_1/block1_conv2/Conv2D"
  op: "Conv2D"
  input: "vgg19_encoder_1/block1_conv1/Relu"
  input: "vgg19_encoder_1/block1_conv2/Conv2D/ReadVariableOp"
  attr {
    key: "T"
    value {
      type: DT_FLOAT
    }
  }
  attr {
    key: "_output_shapes"
    value {
      list {
        shape {
          dim {
            size: 16
          }
          dim {
            size: 256
          }
          dim {
            size: 256
          }
          dim {
            size: 64
          }
        }
      }
    }
  }
  attr {
    key: "_tpu_replicate"
    value {
      s: "cluster"
    }
  }
  attr {
    key: "data_format"
    value {
      s: "NHWC"
    }
  }
  attr {
    key: "dilations"
    value {
      list {
        i: 1
        i: 1
        i: 1
        i: 1
      }
    }
  }
  attr {
    key: "padding"
    value {
      s: "SAME"
    }
  }
  attr {
    key: "strides"
    value {
      list {
        i: 1
        i: 1
        i: 1
        i: 1
      }
    }
  }
  attr {
    key: "use_cudnn_on_gpu"
    value {
      b: true
    }
  }
}
node {
  name: "vgg19_encoder_1/block1_conv2/BiasAdd/ReadVariableOp"
  op: "ReadVariableOp"
  input: "vgg19_encoder/block1_conv2/BiasAdd/ReadVariableOp/Enter"
  input: "^Identity_1"
  attr {
    key: "_output_shapes"
    value {
      list {
        shape {
          dim {
            size: 64
          }
        }
      }
    }
  }
  attr {
    key: "_tpu_replicate"
    value {
      s: "cluster"
    }
  }
  attr {
    key: "dtype"
    value {
      type: DT_FLOAT
    }
  }
}
node {
  name: "vgg19_encoder_1/block1_conv2/BiasAdd"
  op: "BiasAdd"
  input: "vgg19_encoder_1/block1_conv2/Conv2D"
  input: "vgg19_encoder_1/block1_conv2/BiasAdd/ReadVariableOp"
  attr {
    key: "T"
    value {
      type: DT_FLOAT
    }
  }
  attr {
    key: "_output_shapes"
    value {
      list {
        shape {
          dim {
            size: 16
          }
          dim {
            size: 256
          }
          dim {
            size: 256
          }
          dim {
            size: 64
          }
        }
      }
    }
  }
  attr {
    key: "_tpu_replicate"
    value {
      s: "cluster"
    }
  }
  attr {
    key: "data_format"
    value {
      s: "NHWC"
    }
  }
}
node {
  name: "vgg19_encoder_1/block1_conv2/Relu"
  op: "Relu"
  input: "vgg19_encoder_1/block1_conv2/BiasAdd"
  attr {
    key: "T"
    value {
      type: DT_FLOAT
    }
  }
  attr {
    key: "_output_shapes"
    value {
      list {
        shape {
          dim {
            size: 16
          }
          dim {
            size: 256
          }
          dim {
            size: 256
          }
          dim {
            size: 64
          }
        }
      }
    }
  }
  attr {
    key: "_tpu_replicate"
    value {
      s: "cluster"
    }
  }
}
node {
  name: "vgg19_encoder_1/block1_pool/MaxPool"
  op: "MaxPool"
  input: "vgg19_encoder_1/block1_conv2/Relu"
  attr {
    key: "T"
    value {
      type: DT_FLOAT
    }
  }
  attr {
    key: "_output_shapes"
    value {
      list {
        shape {
          dim {
            size: 16
          }
          dim {
            size: 128
          }
          dim {
            size: 128
          }
          dim {
            size: 64
          }
        }
      }
    }
  }
  attr {
    key: "_tpu_replicate"
    value {
      s: "cluster"
    }
  }
  attr {
    key: "data_format"
    value {
      s: "NHWC"
    }
  }
  attr {
    key: "ksize"
    value {
      list {
        i: 1
        i: 2
        i: 2
        i: 1
      }
    }
  }
  attr {
    key: "padding"
    value {
      s: "VALID"
    }
  }
  attr {
    key: "strides"
    value {
      list {
        i: 1
        i: 2
        i: 2
        i: 1
      }
    }
  }
}
node {
  name: "vgg19_encoder_1/block2_conv1/dilation_rate"
  op: "Const"
  input: "^Identity_1"
  attr {
    key: "_output_shapes"
    value {
      list {
        shape {
          dim {
            size: 2
          }
        }
      }
    }
  }
  attr {
    key: "_tpu_replicate"
    value {
      s: "cluster"
    }
  }
  attr {
    key: "dtype"
    value {
      type: DT_INT32
    }
  }
  attr {
    key: "value"
    value {
      tensor {
        dtype: DT_INT32
        tensor_shape {
          dim {
            size: 2
          }
        }
        tensor_content: "\001\000\000\000\001\000\000\000"
      }
    }
  }
}
node {
  name: "vgg19_encoder_1/block2_conv1/Conv2D/ReadVariableOp"
  op: "ReadVariableOp"
  input: "vgg19_encoder/block2_conv1/Conv2D/ReadVariableOp/Enter"
  input: "^Identity_1"
  attr {
    key: "_output_shapes"
    value {
      list {
        shape {
          dim {
            size: 3
          }
          dim {
            size: 3
          }
          dim {
            size: 64
          }
          dim {
            size: 128
          }
        }
      }
    }
  }
  attr {
    key: "_tpu_replicate"
    value {
      s: "cluster"
    }
  }
  attr {
    key: "dtype"
    value {
      type: DT_FLOAT
    }
  }
}
node {
  name: "vgg19_encoder_1/block2_conv1/Conv2D"
  op: "Conv2D"
  input: "vgg19_encoder_1/block1_pool/MaxPool"
  input: "vgg19_encoder_1/block2_conv1/Conv2D/ReadVariableOp"
  attr {
    key: "T"
    value {
      type: DT_FLOAT
    }
  }
  attr {
    key: "_output_shapes"
    value {
      list {
        shape {
          dim {
            size: 16
          }
          dim {
            size: 128
          }
          dim {
            size: 128
          }
          dim {
            size: 128
          }
        }
      }
    }
  }
  attr {
    key: "_tpu_replicate"
    value {
      s: "cluster"
    }
  }
  attr {
    key: "data_format"
    value {
      s: "NHWC"
    }
  }
  attr {
    key: "dilations"
    value {
      list {
        i: 1
        i: 1
        i: 1
        i: 1
      }
    }
  }
  attr {
    key: "padding"
    value {
      s: "SAME"
    }
  }
  attr {
    key: "strides"
    value {
      list {
        i: 1
        i: 1
        i: 1
        i: 1
      }
    }
  }
  attr {
    key: "use_cudnn_on_gpu"
    value {
      b: true
    }
  }
}
node {
  name: "vgg19_encoder_1/block2_conv1/BiasAdd/ReadVariableOp"
  op: "ReadVariableOp"
  input: "vgg19_encoder/block2_conv1/BiasAdd/ReadVariableOp/Enter"
  input: "^Identity_1"
  attr {
    key: "_output_shapes"
    value {
      list {
        shape {
          dim {
            size: 128
          }
        }
      }
    }
  }
  attr {
    key: "_tpu_replicate"
    value {
      s: "cluster"
    }
  }
  attr {
    key: "dtype"
    value {
      type: DT_FLOAT
    }
  }
}
node {
  name: "vgg19_encoder_1/block2_conv1/BiasAdd"
  op: "BiasAdd"
  input: "vgg19_encoder_1/block2_conv1/Conv2D"
  input: "vgg19_encoder_1/block2_conv1/BiasAdd/ReadVariableOp"
  attr {
    key: "T"
    value {
      type: DT_FLOAT
    }
  }
  attr {
    key: "_output_shapes"
    value {
      list {
        shape {
          dim {
            size: 16
          }
          dim {
            size: 128
          }
          dim {
            size: 128
          }
          dim {
            size: 128
          }
        }
      }
    }
  }
  attr {
    key: "_tpu_replicate"
    value {
      s: "cluster"
    }
  }
  attr {
    key: "data_format"
    value {
      s: "NHWC"
    }
  }
}
node {
  name: "vgg19_encoder_1/block2_conv1/Relu"
  op: "Relu"
  input: "vgg19_encoder_1/block2_conv1/BiasAdd"
  attr {
    key: "T"
    value {
      type: DT_FLOAT
    }
  }
  attr {
    key: "_output_shapes"
    value {
      list {
        shape {
          dim {
            size: 16
          }
          dim {
            size: 128
          }
          dim {
            size: 128
          }
          dim {
            size: 128
          }
        }
      }
    }
  }
  attr {
    key: "_tpu_replicate"
    value {
      s: "cluster"
    }
  }
}
node {
  name: "vgg19_encoder_1/block2_conv2/dilation_rate"
  op: "Const"
  input: "^Identity_1"
  attr {
    key: "_output_shapes"
    value {
      list {
        shape {
          dim {
            size: 2
          }
        }
      }
    }
  }
  attr {
    key: "_tpu_replicate"
    value {
      s: "cluster"
    }
  }
  attr {
    key: "dtype"
    value {
      type: DT_INT32
    }
  }
  attr {
    key: "value"
    value {
      tensor {
        dtype: DT_INT32
        tensor_shape {
          dim {
            size: 2
          }
        }
        tensor_content: "\001\000\000\000\001\000\000\000"
      }
    }
  }
}
node {
  name: "vgg19_encoder_1/block2_conv2/Conv2D/ReadVariableOp"
  op: "ReadVariableOp"
  input: "vgg19_encoder/block2_conv2/Conv2D/ReadVariableOp/Enter"
  input: "^Identity_1"
  attr {
    key: "_output_shapes"
    value {
      list {
        shape {
          dim {
            size: 3
          }
          dim {
            size: 3
          }
          dim {
            size: 128
          }
          dim {
            size: 128
          }
        }
      }
    }
  }
  attr {
    key: "_tpu_replicate"
    value {
      s: "cluster"
    }
  }
  attr {
    key: "dtype"
    value {
      type: DT_FLOAT
    }
  }
}
node {
  name: "vgg19_encoder_1/block2_conv2/Conv2D"
  op: "Conv2D"
  input: "vgg19_encoder_1/block2_conv1/Relu"
  input: "vgg19_encoder_1/block2_conv2/Conv2D/ReadVariableOp"
  attr {
    key: "T"
    value {
      type: DT_FLOAT
    }
  }
  attr {
    key: "_output_shapes"
    value {
      list {
        shape {
          dim {
            size: 16
          }
          dim {
            size: 128
          }
          dim {
            size: 128
          }
          dim {
            size: 128
          }
        }
      }
    }
  }
  attr {
    key: "_tpu_replicate"
    value {
      s: "cluster"
    }
  }
  attr {
    key: "data_format"
    value {
      s: "NHWC"
    }
  }
  attr {
    key: "dilations"
    value {
      list {
        i: 1
        i: 1
        i: 1
        i: 1
      }
    }
  }
  attr {
    key: "padding"
    value {
      s: "SAME"
    }
  }
  attr {
    key: "strides"
    value {
      list {
        i: 1
        i: 1
        i: 1
        i: 1
      }
    }
  }
  attr {
    key: "use_cudnn_on_gpu"
    value {
      b: true
    }
  }
}
node {
  name: "vgg19_encoder_1/block2_conv2/BiasAdd/ReadVariableOp"
  op: "ReadVariableOp"
  input: "vgg19_encoder/block2_conv2/BiasAdd/ReadVariableOp/Enter"
  input: "^Identity_1"
  attr {
    key: "_output_shapes"
    value {
      list {
        shape {
          dim {
            size: 128
          }
        }
      }
    }
  }
  attr {
    key: "_tpu_replicate"
    value {
      s: "cluster"
    }
  }
  attr {
    key: "dtype"
    value {
      type: DT_FLOAT
    }
  }
}
node {
  name: "vgg19_encoder_1/block2_conv2/BiasAdd"
  op: "BiasAdd"
  input: "vgg19_encoder_1/block2_conv2/Conv2D"
  input: "vgg19_encoder_1/block2_conv2/BiasAdd/ReadVariableOp"
  attr {
    key: "T"
    value {
      type: DT_FLOAT
    }
  }
  attr {
    key: "_output_shapes"
    value {
      list {
        shape {
          dim {
            size: 16
          }
          dim {
            size: 128
          }
          dim {
            size: 128
          }
          dim {
            size: 128
          }
        }
      }
    }
  }
  attr {
    key: "_tpu_replicate"
    value {
      s: "cluster"
    }
  }
  attr {
    key: "data_format"
    value {
      s: "NHWC"
    }
  }
}
node {
  name: "vgg19_encoder_1/block2_conv2/Relu"
  op: "Relu"
  input: "vgg19_encoder_1/block2_conv2/BiasAdd"
  attr {
    key: "T"
    value {
      type: DT_FLOAT
    }
  }
  attr {
    key: "_output_shapes"
    value {
      list {
        shape {
          dim {
            size: 16
          }
          dim {
            size: 128
          }
          dim {
            size: 128
          }
          dim {
            size: 128
          }
        }
      }
    }
  }
  attr {
    key: "_tpu_replicate"
    value {
      s: "cluster"
    }
  }
}
node {
  name: "vgg19_encoder_1/block2_pool/MaxPool"
  op: "MaxPool"
  input: "vgg19_encoder_1/block2_conv2/Relu"
  attr {
    key: "T"
    value {
      type: DT_FLOAT
    }
  }
  attr {
    key: "_output_shapes"
    value {
      list {
        shape {
          dim {
            size: 16
          }
          dim {
            size: 64
          }
          dim {
            size: 64
          }
          dim {
            size: 128
          }
        }
      }
    }
  }
  attr {
    key: "_tpu_replicate"
    value {
      s: "cluster"
    }
  }
  attr {
    key: "data_format"
    value {
      s: "NHWC"
    }
  }
  attr {
    key: "ksize"
    value {
      list {
        i: 1
        i: 2
        i: 2
        i: 1
      }
    }
  }
  attr {
    key: "padding"
    value {
      s: "VALID"
    }
  }
  attr {
    key: "strides"
    value {
      list {
        i: 1
        i: 2
        i: 2
        i: 1
      }
    }
  }
}
node {
  name: "vgg19_encoder_1/block3_conv1/dilation_rate"
  op: "Const"
  input: "^Identity_1"
  attr {
    key: "_output_shapes"
    value {
      list {
        shape {
          dim {
            size: 2
          }
        }
      }
    }
  }
  attr {
    key: "_tpu_replicate"
    value {
      s: "cluster"
    }
  }
  attr {
    key: "dtype"
    value {
      type: DT_INT32
    }
  }
  attr {
    key: "value"
    value {
      tensor {
        dtype: DT_INT32
        tensor_shape {
          dim {
            size: 2
          }
        }
        tensor_content: "\001\000\000\000\001\000\000\000"
      }
    }
  }
}
node {
  name: "vgg19_encoder_1/block3_conv1/Conv2D/ReadVariableOp"
  op: "ReadVariableOp"
  input: "vgg19_encoder/block3_conv1/Conv2D/ReadVariableOp/Enter"
  input: "^Identity_1"
  attr {
    key: "_output_shapes"
    value {
      list {
        shape {
          dim {
            size: 3
          }
          dim {
            size: 3
          }
          dim {
            size: 128
          }
          dim {
            size: 256
          }
        }
      }
    }
  }
  attr {
    key: "_tpu_replicate"
    value {
      s: "cluster"
    }
  }
  attr {
    key: "dtype"
    value {
      type: DT_FLOAT
    }
  }
}
node {
  name: "vgg19_encoder_1/block3_conv1/Conv2D"
  op: "Conv2D"
  input: "vgg19_encoder_1/block2_pool/MaxPool"
  input: "vgg19_encoder_1/block3_conv1/Conv2D/ReadVariableOp"
  attr {
    key: "T"
    value {
      type: DT_FLOAT
    }
  }
  attr {
    key: "_output_shapes"
    value {
      list {
        shape {
          dim {
            size: 16
          }
          dim {
            size: 64
          }
          dim {
            size: 64
          }
          dim {
            size: 256
          }
        }
      }
    }
  }
  attr {
    key: "_tpu_replicate"
    value {
      s: "cluster"
    }
  }
  attr {
    key: "data_format"
    value {
      s: "NHWC"
    }
  }
  attr {
    key: "dilations"
    value {
      list {
        i: 1
        i: 1
        i: 1
        i: 1
      }
    }
  }
  attr {
    key: "padding"
    value {
      s: "SAME"
    }
  }
  attr {
    key: "strides"
    value {
      list {
        i: 1
        i: 1
        i: 1
        i: 1
      }
    }
  }
  attr {
    key: "use_cudnn_on_gpu"
    value {
      b: true
    }
  }
}
node {
  name: "vgg19_encoder_1/block3_conv1/BiasAdd/ReadVariableOp"
  op: "ReadVariableOp"
  input: "vgg19_encoder/block3_conv1/BiasAdd/ReadVariableOp/Enter"
  input: "^Identity_1"
  attr {
    key: "_output_shapes"
    value {
      list {
        shape {
          dim {
            size: 256
          }
        }
      }
    }
  }
  attr {
    key: "_tpu_replicate"
    value {
      s: "cluster"
    }
  }
  attr {
    key: "dtype"
    value {
      type: DT_FLOAT
    }
  }
}
node {
  name: "vgg19_encoder_1/block3_conv1/BiasAdd"
  op: "BiasAdd"
  input: "vgg19_encoder_1/block3_conv1/Conv2D"
  input: "vgg19_encoder_1/block3_conv1/BiasAdd/ReadVariableOp"
  attr {
    key: "T"
    value {
      type: DT_FLOAT
    }
  }
  attr {
    key: "_output_shapes"
    value {
      list {
        shape {
          dim {
            size: 16
          }
          dim {
            size: 64
          }
          dim {
            size: 64
          }
          dim {
            size: 256
          }
        }
      }
    }
  }
  attr {
    key: "_tpu_replicate"
    value {
      s: "cluster"
    }
  }
  attr {
    key: "data_format"
    value {
      s: "NHWC"
    }
  }
}
node {
  name: "vgg19_encoder_1/block3_conv1/Relu"
  op: "Relu"
  input: "vgg19_encoder_1/block3_conv1/BiasAdd"
  attr {
    key: "T"
    value {
      type: DT_FLOAT
    }
  }
  attr {
    key: "_output_shapes"
    value {
      list {
        shape {
          dim {
            size: 16
          }
          dim {
            size: 64
          }
          dim {
            size: 64
          }
          dim {
            size: 256
          }
        }
      }
    }
  }
  attr {
    key: "_tpu_replicate"
    value {
      s: "cluster"
    }
  }
}
node {
  name: "fast_style_transfer/transformation/transformation/base_image_transform/Pad/paddings"
  op: "Const"
  input: "^Identity_1"
  attr {
    key: "_output_shapes"
    value {
      list {
        shape {
          dim {
            size: 4
          }
          dim {
            size: 2
          }
        }
      }
    }
  }
  attr {
    key: "_tpu_replicate"
    value {
      s: "cluster"
    }
  }
  attr {
    key: "dtype"
    value {
      type: DT_INT32
    }
  }
  attr {
    key: "value"
    value {
      tensor {
        dtype: DT_INT32
        tensor_shape {
          dim {
            size: 4
          }
          dim {
            size: 2
          }
        }
        tensor_content: "…"
      }
    }
  }
}
node {
  name: "fast_style_transfer/transformation/transformation/base_image_transform/Pad"
  op: "Pad"
  input: "vgg19_encoder/block3_conv1/Relu"
  input: "fast_style_transfer/transformation/transformation/base_image_transform/Pad/paddings"
  attr {
    key: "T"
    value {
      type: DT_FLOAT
    }
  }
  attr {
    key: "Tpaddings"
    value {
      type: DT_INT32
    }
  }
  attr {
    key: "_output_shapes"
    value {
      list {
        shape {
          dim {
            size: 16
          }
          dim {
            size: 66
          }
          dim {
            size: 66
          }
          dim {
            size: 256
          }
        }
      }
    }
  }
  attr {
    key: "_tpu_replicate"
    value {
      s: "cluster"
    }
  }
}
node {
  name: "fast_style_transfer/transformation/transformation/base_image_transform/transformation/base_image_transform/conv1/kernel/Initializer/random_uniform/shape"
  op: "Const"
  attr {
    key: "_class"
    value {
      list {
        s: "loc:@fast_style_transfer/transformation/transformation/base_image_transform/transformation/base_image_transform/conv1/kernel"
      }
    }
  }
  attr {
    key: "_output_shapes"
    value {
      list {
        shape {
          dim {
            size: 4
          }
        }
      }
    }
  }
  attr {
    key: "dtype"
    value {
      type: DT_INT32
    }
  }
  attr {
    key: "value"
    value {
      tensor {
        dtype: DT_INT32
        tensor_shape {
          dim {
            size: 4
          }
        }
        tensor_content: "\003\000\000\000\003\000\000\000\000\001\000\000\200\000\000\000"
      }
    }
  }
}
node {
  name: "fast_style_transfer/transformation/transformation/base_image_transform/transformation/base_image_transform/conv1/kernel/Initializer/random_uniform/min"
  op: "Const"
  attr {
    key: "_class"
    value {
      list {
        s: "loc:@fast_style_transfer/transformation/transformation/base_image_transform/transformation/base_image_transform/conv1/kernel"
      }
    }
  }
  attr {
    key: "_output_shapes"
    value {
      list {
        shape {
        }
      }
    }
  }
  attr {
    key: "dtype"
    value {
      type: DT_FLOAT
    }
  }
  attr {
    key: "value"
    value {
      tensor {
        dtype: DT_FLOAT
        tensor_shape {
        }
        float_val: -0.0416666679084301
      }
    }
  }
}
node {
  name: "fast_style_transfer/transformation/transformation/base_image_transform/transformation/base_image_transform/conv1/kernel/Initializer/random_uniform/max"
  op: "Const"
  attr {
    key: "_class"
    value {
      list {
        s: "loc:@fast_style_transfer/transformation/transformation/base_image_transform/transformation/base_image_transform/conv1/kernel"
      }
    }
  }
  attr {
    key: "_output_shapes"
    value {
      list {
        shape {
        }
      }
    }
  }
  attr {
    key: "dtype"
    value {
      type: DT_FLOAT
    }
  }
  attr {
    key: "value"
    value {
      tensor {
        dtype: DT_FLOAT
        tensor_shape {
        }
        float_val: 0.0416666679084301
      }
    }
  }
}
node {
  name: "fast_style_transfer/transformation/transformation/base_image_transform/transformation/base_image_transform/conv1/kernel/Initializer/random_uniform/RandomUniform"
  op: "RandomUniform"
  input: "fast_style_transfer/transformation/transformation/base_image_transform/transformation/base_image_transform/conv1/kernel/Initializer/random_uniform/shape"
  attr {
    key: "T"
    value {
      type: DT_INT32
    }
  }
  attr {
    key: "_class"
    value {
      list {
        s: "loc:@fast_style_transfer/transformation/transformation/base_image_transform/transformation/base_image_transform/conv1/kernel"
      }
    }
  }
  attr {
    key: "_output_shapes"
    value {
      list {
        shape {
          dim {
            size: 3
          }
          dim {
            size: 3
          }
          dim {
            size: 256
          }
          dim {
            size: 128
          }
        }
      }
    }
  }
  attr {
    key: "dtype"
    value {
      type: DT_FLOAT
    }
  }
  attr {
    key: "seed"
    value {
      i: 0
    }
  }
  attr {
    key: "seed2"
    value {
      i: 0
    }
  }
}
node {
  name: "fast_style_transfer/transformation/transformation/base_image_transform/transformation/base_image_transform/conv1/kernel/Initializer/random_uniform/sub"
  op: "Sub"
  input: "fast_style_transfer/transformation/transformation/base_image_transform/transformation/base_image_transform/conv1/kernel/Initializer/random_uniform/max"
  input: "fast_style_transfer/transformation/transformation/base_image_transform/transformation/base_image_transform/conv1/kernel/Initializer/random_uniform/min"
  attr {
    key: "T"
    value {
      type: DT_FLOAT
    }
  }
  attr {
    key: "_class"
    value {
      list {
        s: "loc:@fast_style_transfer/transformation/transformation/base_image_transform/transformation/base_image_transform/conv1/kernel"
      }
    }
  }
  attr {
    key: "_output_shapes"
    value {
      list {
        shape {
        }
      }
    }
  }
}
node {
  name: "fast_style_transfer/transformation/transformation/base_image_transform/transformation/base_image_transform/conv1/kernel/Initializer/random_uniform/mul"
  op: "Mul"
  input: "fast_style_transfer/transformation/transformation/base_image_transform/transformation/base_image_transform/conv1/kernel/Initializer/random_uniform/RandomUniform"
  input: "fast_style_transfer/transformation/transformation/base_image_transform/transformation/base_image_transform/conv1/kernel/Initializer/random_uniform/sub"
  attr {
    key: "T"
    value {
      type: DT_FLOAT
    }
  }
  attr {
    key: "_class"
    value {
      list {
        s: "loc:@fast_style_transfer/transformation/transformation/base_image_transform/transformation/base_image_transform/conv1/kernel"
      }
    }
  }
  attr {
    key: "_output_shapes"
    value {
      list {
        shape {
          dim {
            size: 3
          }
          dim {
            size: 3
          }
          dim {
            size: 256
          }
          dim {
            size: 128
          }
        }
      }
    }
  }
}
node {
  name: "fast_style_transfer/transformation/transformation/base_image_transform/transformation/base_image_transform/conv1/kernel/Initializer/random_uniform"
  op: "Add"
  input: "fast_style_transfer/transformation/transformation/base_image_transform/transformation/base_image_transform/conv1/kernel/Initializer/random_uniform/mul"
  input: "fast_style_transfer/transformation/transformation/base_image_transform/transformation/base_image_transform/conv1/kernel/Initializer/random_uniform/min"
  attr {
    key: "T"
    value {
      type: DT_FLOAT
    }
  }
  attr {
    key: "_class"
    value {
      list {
        s: "loc:@fast_style_transfer/transformation/transformation/base_image_transform/transformation/base_image_transform/conv1/kernel"
      }
    }
  }
  attr {
    key: "_output_shapes"
    value {
      list {
        shape {
          dim {
            size: 3
          }
          dim {
            size: 3
          }
          dim {
            size: 256
          }
          dim {
            size: 128
          }
        }
      }
    }
  }
}
node {
  name: "fast_style_transfer/transformation/transformation/base_image_transform/transformation/base_image_transform/conv1/kernel"
  op: "VarHandleOp"
  attr {
    key: "_class"
    value {
      list {
        s: "loc:@fast_style_transfer/transformation/transformation/base_image_transform/transformation/base_image_transform/conv1/kernel"
      }
    }
  }
  attr {
    key: "_output_shapes"
    value {
      list {
        shape {
        }
      }
    }
  }
  attr {
    key: "container"
    value {
      s: ""
    }
  }
  attr {
    key: "dtype"
    value {
      type: DT_FLOAT
    }
  }
  attr {
    key: "shape"
    value {
      shape {
        dim {
          size: 3
        }
        dim {
          size: 3
        }
        dim {
          size: 256
        }
        dim {
          size: 128
        }
      }
    }
  }
  attr {
    key: "shared_name"
    value {
      s: "fast_style_transfer/transformation/transformation/base_image_transform/transformation/base_image_transform/conv1/kernel"
    }
  }
}
node {
  name: "fast_style_transfer/transformation/transformation/base_image_transform/transformation/base_image_transform/conv1/kernel/IsInitialized/VarIsInitializedOp"
  op: "VarIsInitializedOp"
  input: "fast_style_transfer/transformation/transformation/base_image_transform/transformation/base_image_transform/conv1/kernel"
  attr {
    key: "_output_shapes"
    value {
      list {
        shape {
        }
      }
    }
  }
}
node {
  name: "fast_style_transfer/transformation/transformation/base_image_transform/transformation/base_image_transform/conv1/kernel/Assign"
  op: "AssignVariableOp"
  input: "fast_style_transfer/transformation/transformation/base_image_transform/transformation/base_image_transform/conv1/kernel"
  input: "fast_style_transfer/transformation/transformation/base_image_transform/transformation/base_image_transform/conv1/kernel/Initializer/random_uniform"
  attr {
    key: "_class"
    value {
      list {
        s: "loc:@fast_style_transfer/transformation/transformation/base_image_transform/transformation/base_image_transform/conv1/kernel"
      }
    }
  }
  attr {
    key: "dtype"
    value {
      type: DT_FLOAT
    }
  }
}
node {
  name: "fast_style_transfer/transformation/transformation/base_image_transform/transformation/base_image_transform/conv1/kernel/Read/ReadVariableOp"
  op: "ReadVariableOp"
  input: "fast_style_transfer/transformation/transformation/base_image_transform/transformation/base_image_transform/conv1/kernel"
  attr {
    key: "_class"
    value {
      list {
        s: "loc:@fast_style_transfer/transformation/transformation/base_image_transform/transformation/base_image_transform/conv1/kernel"
      }
    }
  }
  attr {
    key: "_output_shapes"
    value {
      list {
        shape {
          dim {
            size: 3
          }
          dim {
            size: 3
          }
          dim {
            size: 256
          }
          dim {
            size: 128
          }
        }
      }
    }
  }
  attr {
    key: "dtype"
    value {
      type: DT_FLOAT
    }
  }
}
node {
  name: "fast_style_transfer/transformation/transformation/base_image_transform/transformation/base_image_transform/conv1/bias/Initializer/zeros"
  op: "Const"
  attr {
    key: "_class"
    value {
      list {
        s: "loc:@fast_style_transfer/transformation/transformation/base_image_transform/transformation/base_image_transform/conv1/bias"
      }
    }
  }
  attr {
    key: "_output_shapes"
    value {
      list {
        shape {
          dim {
            size: 128
          }
        }
      }
    }
  }
  attr {
    key: "dtype"
    value {
      type: DT_FLOAT
    }
  }
  attr {
    key: "value"
    value {
      tensor {
        dtype: DT_FLOAT
        tensor_shape {
          dim {
            size: 128
          }
        }
        float_val: 0.0
      }
    }
  }
}
node {
  name: "fast_style_transfer/transformation/transformation/base_image_transform/transformation/base_image_transform/conv1/bias"
  op: "VarHandleOp"
  attr {
    key: "_class"
    value {
      list {
        s: "loc:@fast_style_transfer/transformation/transformation/base_image_transform/transformation/base_image_transform/conv1/bias"
      }
    }
  }
  attr {
    key: "_output_shapes"
    value {
      list {
        shape {
        }
      }
    }
  }
  attr {
    key: "container"
    value {
      s: ""
    }
  }
  attr {
    key: "dtype"
    value {
      type: DT_FLOAT
    }
  }
  attr {
    key: "shape"
    value {
      shape {
        dim {
          size: 128
        }
      }
    }
  }
  attr {
    key: "shared_name"
    value {
      s: "fast_style_transfer/transformation/transformation/base_image_transform/transformation/base_image_transform/conv1/bias"
    }
  }
}
node {
  name: "fast_style_transfer/transformation/transformation/base_image_transform/transformation/base_image_transform/conv1/bias/IsInitialized/VarIsInitializedOp"
  op: "VarIsInitializedOp"
  input: "fast_style_transfer/transformation/transformation/base_image_transform/transformation/base_image_transform/conv1/bias"
  attr {
    key: "_output_shapes"
    value {
      list {
        shape {
        }
      }
    }
  }
}
node {
  name: "fast_style_transfer/transformation/transformation/base_image_transform/transformation/base_image_transform/conv1/bias/Assign"
  op: "AssignVariableOp"
  input: "fast_style_transfer/transformation/transformation/base_image_transform/transformation/base_image_transform/conv1/bias"
  input: "fast_style_transfer/transformation/transformation/base_image_transform/transformation/base_image_transform/conv1/bias/Initializer/zeros"
  attr {
    key: "_class"
    value {
      list {
        s: "loc:@fast_style_transfer/transformation/transformation/base_image_transform/transformation/base_image_transform/conv1/bias"
      }
    }
  }
  attr {
    key: "dtype"
    value {
      type: DT_FLOAT
    }
  }
}
node {
  name: "fast_style_transfer/transformation/transformation/base_image_transform/transformation/base_image_transform/conv1/bias/Read/ReadVariableOp"
  op: "ReadVariableOp"
  input: "fast_style_transfer/transformation/transformation/base_image_transform/transformation/base_image_transform/conv1/bias"
  attr {
    key: "_class"
    value {
      list {
        s: "loc:@fast_style_transfer/transformation/transformation/base_image_transform/transformation/base_image_transform/conv1/bias"
      }
    }
  }
  attr {
    key: "_output_shapes"
    value {
      list {
        shape {
          dim {
            size: 128
          }
        }
      }
    }
  }
  attr {
    key: "dtype"
    value {
      type: DT_FLOAT
    }
  }
}
node {
  name: "fast_style_transfer/transformation/transformation/base_image_transform/transformation/base_image_transform/conv1/dilation_rate"
  op: "Const"
  input: "^Identity_1"
  attr {
    key: "_output_shapes"
    value {
      list {
        shape {
          dim {
            size: 2
          }
        }
      }
    }
  }
  attr {
    key: "_tpu_replicate"
    value {
      s: "cluster"
    }
  }
  attr {
    key: "dtype"
    value {
      type: DT_INT32
    }
  }
  attr {
    key: "value"
    value {
      tensor {
        dtype: DT_INT32
        tensor_shape {
          dim {
            size: 2
          }
        }
        tensor_content: "\001\000\000\000\001\000\000\000"
      }
    }
  }
}
node {
  name: "fast_style_transfer/transformation/transformation/base_image_transform/transformation/base_image_transform/conv1/Conv2D/ReadVariableOp"
  op: "ReadVariableOp"
  input: "fast_style_transfer/transformation/transformation/base_image_transform/transformation/base_image_transform/conv1/Conv2D/ReadVariableOp/Enter"
  input: "^Identity_1"
  attr {
    key: "_output_shapes"
    value {
      list {
        shape {
          dim {
            size: 3
          }
          dim {
            size: 3
          }
          dim {
            size: 256
          }
          dim {
            size: 128
          }
        }
      }
    }
  }
  attr {
    key: "_tpu_replicate"
    value {
      s: "cluster"
    }
  }
  attr {
    key: "dtype"
    value {
      type: DT_FLOAT
    }
  }
}
node {
  name: "fast_style_transfer/transformation/transformation/base_image_transform/transformation/base_image_transform/conv1/Conv2D/ReadVariableOp/Enter"
  op: "Enter"
  input: "fast_style_transfer/transformation/transformation/base_image_transform/transformation/base_image_transform/conv1/kernel"
  input: "^TPUReplicateMetadata"
  attr {
    key: "T"
    value {
      type: DT_RESOURCE
    }
  }
  attr {
    key: "_output_shapes"
    value {
      list {
        shape {
        }
      }
    }
  }
  attr {
    key: "_tpu_replicate"
    value {
      s: "cluster"
    }
  }
  attr {
    key: "frame_name"
    value {
      s: "while_context"
    }
  }
  attr {
    key: "is_constant"
    value {
      b: true
    }
  }
  attr {
    key: "parallel_iterations"
    value {
      i: 10
    }
  }
}
node {
  name: "fast_style_transfer/transformation/transformation/base_image_transform/transformation/base_image_transform/conv1/Conv2D"
  op: "Conv2D"
…
            }
            string_val: "all dims of \'image.shape\' must be > 0."
          }
        }
      }
    }
    node_def {
      name: "random_flip_left_right/assert_positive/assert_less/Assert/Assert/data_0"
      op: "Const"
      attr {
        key: "dtype"
        value {
          type: DT_STRING
        }
      }
      attr {
        key: "value"
        value {
          tensor {
            dtype: DT_STRING
            tensor_shape {
            }
            string_val: "all dims of \'image.shape\' must be > 0."
          }
        }
      }
    }
    node_def {
      name: "random_flip_left_right/assert_positive/assert_less/Assert/Assert"
      op: "Assert"
      input: "random_flip_left_right/assert_positive/assert_less/All:output:0"
      input: "random_flip_left_right/assert_positive/assert_less/Assert/Assert/data_0:output:0"
      attr {
        key: "T"
        value {
          list {
            type: DT_STRING
          }
        }
      }
      attr {
        key: "summarize"
        value {
          i: 3
        }
      }
    }
    node_def {
      name: "random_flip_left_right/control_dependency"
      op: "Identity"
      input: "Squeeze:output:0"
      input: "^random_flip_left_right/assert_positive/assert_less/Assert/Assert"
      attr {
        key: "T"
        value {
          type: DT_FLOAT
        }
      }
      attr {
        key: "_class"
        value {
          list {
            s: "loc:@Squeeze"
          }
        }
      }
    }
    node_def {
      name: "random_flip_left_right/random_uniform/shape"
      op: "Const"
      attr {
        key: "dtype"
        value {
          type: DT_INT32
        }
      }
      attr {
        key: "value"
        value {
          tensor {
            dtype: DT_INT32
            tensor_shape {
              dim {
              }
            }
          }
        }
      }
    }
    node_def {
      name: "random_flip_left_right/random_uniform/min"
      op: "Const"
      attr {
        key: "dtype"
        value {
          type: DT_FLOAT
        }
      }
      attr {
        key: "value"
        value {
          tensor {
            dtype: DT_FLOAT
            tensor_shape {
            }
            float_val: 0.0
          }
        }
      }
    }
    node_def {
      name: "random_flip_left_right/random_uniform/max"
      op: "Const"
      attr {
        key: "dtype"
        value {
          type: DT_FLOAT
        }
      }
      attr {
        key: "value"
        value {
          tensor {
            dtype: DT_FLOAT
            tensor_shape {
            }
            float_val: 1.0
          }
        }
      }
    }
    node_def {
      name: "random_flip_left_right/random_uniform/RandomUniform"
      op: "RandomUniform"
      input: "random_flip_left_right/random_uniform/shape:output:0"
      attr {
        key: "T"
        value {
          type: DT_INT32
        }
      }
      attr {
        key: "dtype"
        value {
          type: DT_FLOAT
        }
      }
      attr {
        key: "seed"
        value {
          i: 0
        }
      }
      attr {
        key: "seed2"
        value {
          i: 0
        }
      }
    }
    node_def {
      name: "random_flip_left_right/random_uniform/sub"
      op: "Sub"
      input: "random_flip_left_right/random_uniform/max:output:0"
      input: "random_flip_left_right/random_uniform/min:output:0"
      attr {
        key: "T"
        value {
          type: DT_FLOAT
        }
      }
    }
    node_def {
      name: "random_flip_left_right/random_uniform/mul"
      op: "Mul"
      input: "random_flip_left_right/random_uniform/RandomUniform:output:0"
      input: "random_flip_left_right/random_uniform/sub:z:0"
      attr {
        key: "T"
        value {
          type: DT_FLOAT
        }
      }
    }
    node_def {
      name: "random_flip_left_right/random_uniform"
      op: "Add"
      input: "random_flip_left_right/random_uniform/mul:z:0"
      input: "random_flip_left_right/random_uniform/min:output:0"
      attr {
        key: "T"
        value {
          type: DT_FLOAT
        }
      }
    }
    node_def {
      name: "random_flip_left_right/Less/y"
      op: "Const"
      attr {
        key: "dtype"
        value {
          type: DT_FLOAT
        }
      }
      attr {
        key: "value"
        value {
          tensor {
            dtype: DT_FLOAT
            tensor_shape {
            }
            float_val: 0.5
          }
        }
      }
    }
    node_def {
      name: "random_flip_left_right/Less"
      op: "Less"
      input: "random_flip_left_right/random_uniform:z:0"
      input: "random_flip_left_right/Less/y:output:0"
      attr {
        key: "T"
        value {
          type: DT_FLOAT
        }
      }
    }
    node_def {
      name: "random_flip_left_right/Switch"
      op: "Switch"
      input: "random_flip_left_right/Less:z:0"
      input: "random_flip_left_right/Less:z:0"
      attr {
        key: "T"
        value {
          type: DT_BOOL
        }
      }
    }
    node_def {
      name: "random_flip_left_right/switch_t"
      op: "Identity"
      input: "random_flip_left_right/Switch:output_true:0"
      attr {
        key: "T"
        value {
          type: DT_BOOL
        }
      }
    }
    node_def {
      name: "random_flip_left_right/switch_f"
      op: "Identity"
      input: "random_flip_left_right/Switch:output_false:0"
      attr {
        key: "T"
        value {
          type: DT_BOOL
        }
      }
    }
    node_def {
      name: "random_flip_left_right/pred_id"
      op: "Identity"
      input: "random_flip_left_right/Less:z:0"
      attr {
        key: "T"
        value {
          type: DT_BOOL
        }
      }
    }
    node_def {
      name: "random_flip_left_right/ReverseV2/axis"
      op: "Const"
      input: "^random_flip_left_right/switch_t"
      attr {
        key: "dtype"
        value {
          type: DT_INT32
        }
      }
      attr {
        key: "value"
        value {
          tensor {
            dtype: DT_INT32
            tensor_shape {
              dim {
                size: 1
              }
            }
            int_val: 1
          }
        }
      }
    }
    node_def {
      name: "random_flip_left_right/ReverseV2"
      op: "ReverseV2"
      input: "random_flip_left_right/ReverseV2/Switch:output_true:0"
      input: "random_flip_left_right/ReverseV2/axis:output:0"
      attr {
        key: "T"
        value {
          type: DT_FLOAT
        }
      }
      attr {
        key: "Tidx"
        value {
          type: DT_INT32
        }
      }
    }
    node_def {
      name: "random_flip_left_right/ReverseV2/Switch"
      op: "Switch"
      input: "random_flip_left_right/control_dependency:output:0"
      input: "random_flip_left_right/pred_id:output:0"
      attr {
        key: "T"
        value {
          type: DT_FLOAT
        }
      }
      attr {
        key: "_class"
        value {
          list {
            s: "loc:@Squeeze"
          }
        }
      }
    }
    node_def {
      name: "random_flip_left_right/Switch_1"
      op: "Switch"
      input: "random_flip_left_right/control_dependency:output:0"
      input: "random_flip_left_right/pred_id:output:0"
      attr {
        key: "T"
        value {
          type: DT_FLOAT
        }
      }
      attr {
        key: "_class"
        value {
          list {
            s: "loc:@Squeeze"
          }
        }
      }
    }
    node_def {
      name: "random_flip_left_right/Merge"
      op: "Merge"
      input: "random_flip_left_right/Switch_1:output_false:0"
      input: "random_flip_left_right/ReverseV2:output:0"
      attr {
        key: "N"
        value {
          i: 2
        }
      }
      attr {
        key: "T"
        value {
          type: DT_FLOAT
        }
      }
    }
    node_def {
      name: "strided_slice/stack"
      op: "Const"
      attr {
        key: "dtype"
        value {
          type: DT_INT32
        }
      }
      attr {
        key: "value"
        value {
          tensor {
            dtype: DT_INT32
            tensor_shape {
              dim {
                size: 2
              }
            }
            tensor_content: "\000\000\000\000\000\000\000\000"
          }
        }
      }
    }
    node_def {
      name: "strided_slice/stack_1"
      op: "Const"
      attr {
        key: "dtype"
        value {
          type: DT_INT32
        }
      }
      attr {
        key: "value"
        value {
          tensor {
            dtype: DT_INT32
            tensor_shape {
              dim {
                size: 2
              }
            }
            tensor_content: "\000\000\000\000\000\000\000\000"
          }
        }
      }
    }
    node_def {
      name: "strided_slice/stack_2"
      op: "Const"
      attr {
        key: "dtype"
        value {
          type: DT_INT32
        }
      }
      attr {
        key: "value"
        value {
          tensor {
            dtype: DT_INT32
            tensor_shape {
              dim {
                size: 2
              }
            }
            tensor_content: "\001\000\000\000\377\377\377\377"
          }
        }
      }
    }
    node_def {
      name: "strided_slice"
      op: "StridedSlice"
      input: "random_flip_left_right/Merge:output:0"
      input: "strided_slice/stack:output:0"
      input: "strided_slice/stack_1:output:0"
      input: "strided_slice/stack_2:output:0"
      attr {
        key: "Index"
        value {
          type: DT_INT32
        }
      }
      attr {
        key: "T"
        value {
          type: DT_FLOAT
        }
      }
      attr {
        key: "begin_mask"
        value {
          i: 2
        }
      }
      attr {
        key: "ellipsis_mask"
        value {
          i: 1
        }
      }
      attr {
        key: "end_mask"
        value {
          i: 2
        }
      }
      attr {
        key: "new_axis_mask"
        value {
          i: 0
        }
      }
      attr {
        key: "shrink_axis_mask"
        value {
          i: 0
        }
      }
    }
    node_def {
      name: "Reshape_1/shape"
      op: "Const"
      attr {
        key: "dtype"
        value {
          type: DT_INT32
        }
      }
      attr {
        key: "value"
        value {
          tensor {
            dtype: DT_INT32
            tensor_shape {
              dim {
                size: 3
              }
            }
            tensor_content: "\001\000\000\000\001\000\000\000\003\000\000\000"
          }
        }
      }
    }
    node_def {
      name: "Reshape_1"
      op: "Reshape"
      input: "reshape_1_placeholder"
      input: "Reshape_1/shape:output:0"
      attr {
        key: "T"
        value {
          type: DT_FLOAT
        }
      }
      attr {
        key: "Tshape"
        value {
          type: DT_INT32
        }
      }
    }
    node_def {
      name: "add_1"
      op: "Add"
      input: "strided_slice:output:0"
      input: "Reshape_1:output:0"
      attr {
        key: "T"
        value {
          type: DT_FLOAT
        }
      }
    }
    node_def {
      name: "Reshape_2/shape"
      op: "Const"
      attr {
        key: "dtype"
        value {
          type: DT_INT32
        }
      }
      attr {
        key: "value"
        value {
          tensor {
            dtype: DT_INT32
            tensor_shape {
              dim {
                size: 3
              }
            }
            tensor_content: "\000\001\000\000\000\001\000\000\003\000\000\000"
          }
        }
      }
    }
    node_def {
      name: "Reshape_2"
      op: "Reshape"
      input: "add_1:z:0"
      input: "Reshape_2/shape:output:0"
      attr {
        key: "T"
        value {
          type: DT_FLOAT
        }
      }
      attr {
        key: "Tshape"
        value {
          type: DT_INT32
        }
      }
    }
    node_def {
      name: "Cast/x"
      op: "Const"
      attr {
        key: "dtype"
        value {
          type: DT_FLOAT
        }
      }
      attr {
        key: "value"
        value {
          tensor {
            dtype: DT_FLOAT
            tensor_shape {
              dim {
                size: 1
              }
            }
            float_val: 0.0
          }
        }
      }
    }
    ret {
      key: "reshape_2"
      value: "Reshape_2:output:0"
    }
  }
  function {
    signature {
      name: "_make_dataset_yFWJkZd1cJs"
      output_arg {
        name: "prefetchdataset"
        type: DT_VARIANT
      }
      is_stateful: true
    }
    node_def {
      name: "TensorSliceDataset/list_files_1/file_pattern"
      op: "Const"
      device: "/job:worker/task:0/device:CPU:0"
      attr {
        key: "dtype"
        value {
          type: DT_STRING
        }
      }
      attr {
        key: "value"
        value {
          tensor {
            dtype: DT_STRING
            tensor_shape {
            }
            string_val: "gs://coco-tfrecords/wiki*"
          }
        }
      }
    }
    node_def {
      name: "TensorSliceDataset/list_files_1/MatchingFiles"
      op: "MatchingFiles"
      input: "TensorSliceDataset/list_files_1/file_pattern:output:0"
      device: "/job:worker/task:0/device:CPU:0"
    }
    node_def {
      name: "TensorSliceDataset/list_files_1/Identity"
      op: "Identity"
      input: "TensorSliceDataset/list_files_1/MatchingFiles:filenames:0"
      device: "/job:worker/task:0/device:CPU:0"
      attr {
        key: "T"
        value {
          type: DT_STRING
        }
      }
    }
    node_def {
      name: "TensorSliceDataset"
      op: "TensorSliceDataset"
      input: "TensorSliceDataset/list_files_1/Identity:output:0"
      device: "/job:worker/task:0/device:CPU:0"
      attr {
        key: "Toutput_types"
        value {
          list {
            type: DT_STRING
          }
        }
      }
      attr {
        key: "output_shapes"
        value {
          list {
            shape {
            }
          }
        }
      }
    }
    node_def {
      name: "ShuffleDataset/list_files_1/file_pattern"
      op: "Const"
      device: "/job:worker/task:0/device:CPU:0"
      attr {
        key: "dtype"
        value {
          type: DT_STRING
        }
      }
      attr {
        key: "value"
        value {
          tensor {
            dtype: DT_STRING
            tensor_shape {
            }
            string_val: "gs://coco-tfrecords/wiki*"
          }
        }
      }
    }
    node_def {
      name: "ShuffleDataset/list_files_1/MatchingFiles"
      op: "MatchingFiles"
      input: "ShuffleDataset/list_files_1/file_pattern:output:0"
      device: "/job:worker/task:0/device:CPU:0"
    }
    node_def {
      name: "ShuffleDataset/list_files_1/Identity"
      op: "Identity"
      input: "ShuffleDataset/list_files_1/MatchingFiles:filenames:0"
      device: "/job:worker/task:0/device:CPU:0"
      attr {
        key: "T"
        value {
          type: DT_STRING
        }
      }
    }
    node_def {
      name: "ShuffleDataset/list_files_1/Shape_1"
      op: "Shape"
      input: "ShuffleDataset/list_files_1/Identity:output:0"
      device: "/job:worker/task:0/device:CPU:0"
      attr {
        key: "T"
        value {
          type: DT_STRING
        }
      }
      attr {
        key: "out_type"
        value {
          type: DT_INT64
        }
      }
    }
    node_def {
      name: "ShuffleDataset/list_files_1/strided_slice_1/stack"
      op: "Const"
      device: "/job:worker/task:0/device:CPU:0"
      attr {
        key: "dtype"
        value {
          type: DT_INT32
        }
      }
      attr {
        key: "value"
        value {
          tensor {
            dtype: DT_INT32
            tensor_shape {
              dim {
                size: 1
              }
            }
            int_val: 0
          }
        }
      }
    }
    node_def {
      name: "ShuffleDataset/list_files_1/strided_slice_1/stack_1"
      op: "Const"
      device: "/job:worker/task:0/device:CPU:0"
      attr {
        key: "dtype"
        value {
          type: DT_INT32
        }
      }
      attr {
        key: "value"
        value {
          tensor {
            dtype: DT_INT32
            tensor_shape {
              dim {
                size: 1
              }
            }
            int_val: 1
          }
        }
      }
    }
    node_def {
      name: "ShuffleDataset/list_files_1/strided_slice_1/stack_2"
      op: "Const"
      device: "/job:worker/task:0/device:CPU:0"
      attr {
        key: "dtype"
        value {
          type: DT_INT32
        }
      }
      attr {
        key: "value"
        value {
          tensor {
            dtype: DT_INT32
            tensor_shape {
              dim {
                size: 1
              }
            }
            int_val: 1
          }
        }
      }
    }
    node_def {
      name: "ShuffleDataset/list_files_1/strided_slice_1"
      op: "StridedSlice"
      input: "ShuffleDataset/list_files_1/Shape_1:output:0"
      input: "ShuffleDataset/list_files_1/strided_slice_1/stack:output:0"
      input: "ShuffleDataset/list_files_1/strided_slice_1/stack_1:output:0"
      input: "ShuffleDataset/list_files_1/strided_slice_1/stack_2:output:0"
      device: "/job:worker/task:0/device:CPU:0"
      attr {
        key: "Index"
        value {
          type: DT_INT32
        }
      }
      attr {
        key: "T"
        value {
          type: DT_INT64
        }
      }
      attr {
        key: "begin_mask"
        value {
          i: 0
        }
      }
      attr {
        key: "ellipsis_mask"
        value {
          i: 0
        }
      }
      attr {
        key: "end_mask"
        value {
          i: 0
        }
      }
      attr {
        key: "new_axis_mask"
        value {
          i: 0
        }
      }
      attr {
        key: "shrink_axis_mask"
        value {
          i: 1
        }
      }
    }
    node_def {
      name: "ShuffleDataset/list_files_1/Maximum/y"
      op: "Const"
      device: "/job:worker/task:0/device:CPU:0"
      attr {
        key: "dtype"
        value {
          type: DT_INT64
        }
      }
      attr {
        key: "value"
        value {
          tensor {
            dtype: DT_INT64
            tensor_shape {
            }
            int64_val: 1
          }
        }
      }
    }
    node_def {
      name: "ShuffleDataset/list_files_1/Maximum"
      op: "Maximum"
      input: "ShuffleDataset/list_files_1/strided_slice_1:output:0"
      input: "ShuffleDataset/list_files_1/Maximum/y:output:0"
      device: "/job:worker/task:0/device:CPU:0"
      attr {
        key: "T"
        value {
          type: DT_INT64
        }
      }
    }
    node_def {
      name: "ShuffleDataset/list_files_1/seed"
      op: "Const"
      device: "/job:worker/task:0/device:CPU:0"
      attr {
        key: "dtype"
        value {
          type: DT_INT64
        }
      }
      attr {
        key: "value"
        value {
          tensor {
            dtype: DT_INT64
            tensor_shape {
            }
            int64_val: 0
          }
        }
      }
    }
    node_def {
      name: "ShuffleDataset/list_files_1/seed2"
      op: "Const"
      device: "/job:worker/task:0/device:CPU:0"
      attr {
        key: "dtype"
        value {
          type: DT_INT64
        }
      }
      attr {
        key: "value"
        value {
          tensor {
            dtype: DT_INT64
            tensor_shape {
            }
            int64_val: 0
          }
        }
      }
    }
    node_def {
      name: "ShuffleDataset"
      op: "ShuffleDataset"
      input: "TensorSliceDataset:handle:0"
      input: "ShuffleDataset/list_files_1/Maximum:z:0"
      input: "ShuffleDataset/list_files_1/seed:output:0"
      input: "ShuffleDataset/list_files_1/seed2:output:0"
      device: "/job:worker/task:0/device:CPU:0"
      attr {
        key: "output_shapes"
        value {
          list {
            shape {
            }
          }
        }
      }
      attr {
        key: "output_types"
        value {
          list {
            type: DT_STRING
          }
        }
      }
      attr {
        key: "reshuffle_each_iteration"
        value {
          b: true
        }
      }
    }
    node_def {
      name: "ShuffleAndRepeatDataset/buffer_size_2"
      op: "Const"
      device: "/job:worker/task:0/device:CPU:0"
      attr {
        key: "dtype"
        value {
          type: DT_INT64
        }
      }
      attr {
        key: "value"
        value {
          tensor {
            dtype: DT_INT64
            tensor_shape {
            }
            int64_val: 100
          }
        }
      }
    }
    node_def {
      name: "ShuffleAndRepeatDataset/seed_1"
      op: "Const"
      device: "/job:worker/task:0/device:CPU:0"
      attr {
        key: "dtype"
        value {
          type: DT_INT64
        }
      }
      attr {
        key: "value"
        value {
          tensor {
            dtype: DT_INT64
            tensor_shape {
            }
            int64_val: 0
          }
        }
      }
    }
    node_def {
      name: "ShuffleAndRepeatDataset/seed2_1"
      op: "Const"
      device: "/job:worker/task:0/device:CPU:0"
      attr {
        key: "dtype"
        value {
          type: DT_INT64
        }
      }
      attr {
        key: "value"
        value {
          tensor {
            dtype: DT_INT64
            tensor_shape {
            }
            int64_val: 0
          }
        }
      }
    }
    node_def {
      name: "ShuffleAndRepeatDataset/count_1"
      op: "Const"
      device: "/job:worker/task:0/device:CPU:0"
      attr {
        key: "dtype"
        value {
          type: DT_INT64
        }
      }
      attr {
        key: "value"
        value {
          tensor {
            dtype: DT_INT64
            tensor_shape {
            }
            int64_val: -1
          }
        }
      }
    }
    node_def {
      name: "ShuffleAndRepeatDataset"
      op: "ShuffleAndRepeatDataset"
      input: "ShuffleDataset:handle:0"
      input: "ShuffleAndRepeatDataset/buffer_size_2:output:0"
      input: "ShuffleAndRepeatDataset/seed_1:output:0"
      input: "ShuffleAndRepeatDataset/seed2_1:output:0"
      input: "ShuffleAndRepeatDataset/count_1:output:0"
      device: "/job:worker/task:0/device:CPU:0"
      attr {
        key: "output_shapes"
        value {
          list {
            shape {
            }
          }
        }
      }
      attr {
        key: "output_types"
        value {
          list {
            type: DT_STRING
          }
        }
      }
    }
    node_def {
      name: "ParallelInterleaveDataset/cycle_length_1"
      op: "Const"
      device: "/job:worker/task:0/device:CPU:0"
      attr {
        key: "dtype"
        value {
          type: DT_INT64
        }
      }
      attr {
        key: "value"
        value {
          tensor {
            dtype: DT_INT64
            tensor_shape {
            }
            int64_val: 4
          }
        }
      }
    }
    node_def {
      name: "ParallelInterleaveDataset/block_length_1"
      op: "Const"
      device: "/job:worker/task:0/device:CPU:0"
      attr {
        key: "dtype"
        value {
          type: DT_INT64
        }
      }
      attr {
        key: "value"
        value {
          tensor {
            dtype: DT_INT64
            tensor_shape {
            }
            int64_val: 1
          }
        }
      }
    }
    node_def {
      name: "ParallelInterleaveDataset/sloppy_1"
      op: "Const"
      device: "/job:worker/task:0/device:CPU:0"
      attr {
        key: "dtype"
        value {
          type: DT_BOOL
        }
      }
      attr {
        key: "value"
        value {
          tensor {
            dtype: DT_BOOL
            tensor_shape {
            }
            bool_val: false
          }
        }
      }
    }
    node_def {
      name: "ParallelInterleaveDataset/buffer_output_elements_1"
      op: "Const"
      device: "/job:worker/task:0/device:CPU:0"
      attr {
        key: "dtype"
        value {
          type: DT_INT64
        }
      }
      attr {
        key: "value"
        value {
          tensor {
            dtype: DT_INT64
            tensor_shape {
            }
            int64_val: 2
          }
        }
      }
    }
    node_def {
      name: "ParallelInterleaveDataset/prefetch_input_elements_1"
      op: "Const"
      device: "/job:worker/task:0/device:CPU:0"
      attr {
        key: "dtype"
        value {
          type: DT_INT64
        }
      }
      attr {
        key: "value"
        value {
          tensor {
            dtype: DT_INT64
            tensor_shape {
            }
            int64_val: 8
          }
        }
      }
    }
    node_def {
      name: "ParallelInterleaveDataset"
      op: "ParallelInterleaveDataset"
      input: "ShuffleAndRepeatDataset:handle:0"
      input: "ParallelInterleaveDataset/cycle_length_1:output:0"
      input: "ParallelInterleaveDataset/block_length_1:output:0"
      input: "ParallelInterleaveDataset/sloppy_1:output:0"
      input: "ParallelInterleaveDataset/buffer_output_elements_1:output:0"
      input: "ParallelInterleaveDataset/prefetch_input_elements_1:output:0"
      device: "/job:worker/task:0/device:CPU:0"
      attr {
        key: "Targuments"
        value {
          list {
          }
        }
      }
      attr {
        key: "f"
        value {
          func {
            name: "tf_data_structured_function_wrapper_62iz4XpaPAY"
          }
        }
      }
      attr {
        key: "output_shapes"
        value {
          list {
            shape {
            }
          }
        }
      }
      attr {
        key: "output_types"
        value {
          list {
            type: DT_STRING
          }
        }
      }
    }
    node_def {
      name: "ParallelMapDataset/Const_1"
      op: "Const"
      device: "/job:worker/task:0/device:CPU:0"
      attr {
        key: "dtype"
        value {
          type: DT_FLOAT
        }
      }
      attr {
        key: "value"
        value {
          tensor {
            dtype: DT_FLOAT
            tensor_shape {
              dim {
                size: 3
              }
            }
            tensor_content: "\305\340\317\302\331\216\351\302)\\\367\302"
          }
        }
      }
    }
    node_def {
      name: "ParallelMapDataset/num_parallel_calls_1"
      op: "Const"
      device: "/job:worker/task:0/device:CPU:0"
      attr {
        key: "dtype"
        value {
          type: DT_INT32
        }
      }
      attr {
        key: "value"
        value {
          tensor {
            dtype: DT_INT32
            tensor_shape {
            }
            int_val: 8
          }
        }
      }
    }
    node_def {
      name: "ParallelMapDataset"
      op: "ParallelMapDataset"
      input: "ParallelInterleaveDataset:handle:0"
      input: "ParallelMapDataset/Const_1:output:0"
      input: "ParallelMapDataset/num_parallel_calls_1:output:0"
      device: "/job:worker/task:0/device:CPU:0"
      attr {
        key: "Targuments"
        value {
          list {
            type: DT_FLOAT
          }
        }
      }
      attr {
        key: "f"
        value {
          func {
            name: "tf_data_structured_function_wrapper_BQ6MGAseyxA"
          }
        }
      }
      attr {
        key: "output_shapes"
        value {
          list {
            shape {
              dim {
                size: 256
              }
              dim {
                size: 256
              }
              dim {
                size: 3
              }
            }
          }
        }
      }
      attr {
        key: "output_types"
        value {
          list {
            type: DT_FLOAT
          }
        }
      }
      attr {
        key: "use_inter_op_parallelism"
        value {
          b: true
        }
      }
    }
    node_def {
      name: "BatchDatasetV2/batch_size_1"
      op: "Const"
      device: "/job:worker/task:0/device:CPU:0"
      attr {
        key: "dtype"
        value {
          type: DT_INT64
        }
      }
      attr {
        key: "value"
        value {
          tensor {
            dtype: DT_INT64
            tensor_shape {
            }
            int64_val: 128
          }
        }
      }
    }
    node_def {
      name: "BatchDatasetV2/drop_remainder_1"
      op: "Const"
      device: "/job:worker/task:0/device:CPU:0"
      attr {
        key: "dtype"
        value {
          type: DT_BOOL
        }
      }
      attr {
        key: "value"
        value {
          tensor {
            dtype: DT_BOOL
            tensor_shape {
            }
            bool_val: true
          }
        }
      }
    }
    node_def {
      name: "BatchDatasetV2"
      op: "BatchDatasetV2"
      input: "ParallelMapDataset:handle:0"
      input: "BatchDatasetV2/batch_size_1:output:0"
      input: "BatchDatasetV2/drop_remainder_1:output:0"
      device: "/job:worker/task:0/device:CPU:0"
      attr {
        key: "output_shapes"
        value {
          list {
            shape {
              dim {
                size: 128
              }
              dim {
                size: 256
              }
              dim {
                size: 256
              }
              dim {
                size: 3
              }
            }
          }
        }
      }
      attr {
        key: "output_types"
        value {
          list {
            type: DT_FLOAT
          }
        }
      }
    }
    node_def {
      name: "PrefetchDataset/buffer_size_3"
      op: "Const"
      device: "/job:worker/task:0/device:CPU:0"
      attr {
        key: "dtype"
        value {
          type: DT_INT64
        }
      }
      attr {
        key: "value"
        value {
          tensor {
            dtype: DT_INT64
            tensor_shape {
            }
            int64_val: 128
          }
        }
      }
    }
    node_def {
      name: "PrefetchDataset"
      op: "PrefetchDataset"
      input: "BatchDatasetV2:handle:0"
      input: "PrefetchDataset/buffer_size_3:output:0"
      device: "/job:worker/task:0/device:CPU:0"
      attr {
        key: "output_shapes"
        value {
          list {
            shape {
              dim {
                size: 128
              }
              dim {
                size: 256
              }
              dim {
                size: 256
              }
              dim {
                size: 3
              }
            }
          }
        }
      }
      attr {
        key: "output_types"
        value {
          list {
            type: DT_FLOAT
          }
        }
      }
    }
    ret {
      key: "prefetchdataset"
      value: "PrefetchDataset:handle:0"
    }
  }
  function {
    signature {
      name: "_make_dataset_zTjIZOlRFUU"
      output_arg {
        name: "prefetchdataset"
        type: DT_VARIANT
      }
      is_stateful: true
    }
    node_def {
      name: "TensorSliceDataset/list_files/file_pattern"
      op: "Const"
      device: "/job:worker/task:0/device:CPU:0"
      attr {
        key: "dtype"
        value {
          type: DT_STRING
        }
      }
      attr {
        key: "value"
        value {
          tensor {
            dtype: DT_STRING
            tensor_shape {
            }
            string_val: "gs://coco-tfrecords/coco*"
          }
        }
      }
    }
    node_def {
      name: "TensorSliceDataset/list_files/MatchingFiles"
      op: "MatchingFiles"
      input: "TensorSliceDataset/list_files/file_pattern:output:0"
      device: "/job:worker/task:0/device:CPU:0"
    }
    node_def {
      name: "TensorSliceDataset/list_files/Identity"
      op: "Identity"
      input: "TensorSliceDataset/list_files/MatchingFiles:filenames:0"
      device: "/job:worker/task:0/device:CPU:0"
      attr {
        key: "T"
        value {
          type: DT_STRING
        }
      }
    }
    node_def {
      name: "TensorSliceDataset"
      op: "TensorSliceDataset"
      input: "TensorSliceDataset/list_files/Identity:output:0"
      device: "/job:worker/task:0/device:CPU:0"
      attr {
        key: "Toutput_types"
        value {
          list {
            type: DT_STRING
          }
        }
      }
      attr {
        key: "output_shapes"
        value {
          list {
            shape {
            }
          }
        }
      }
    }
    node_def {
      name: "ShuffleDataset/list_files/file_pattern"
      op: "Const"
      device: "/job:worker/task:0/device:CPU:0"
      attr {
        key: "dtype"
        value {
          type: DT_STRING
        }
      }
      attr {
        key: "value"
        value {
          tensor {
            dtype: DT_STRING
            tensor_shape {
            }
            string_val: "gs://coco-tfrecords/coco*"
          }
        }
      }
    }
    node_def {
      name: "ShuffleDataset/list_files/MatchingFiles"
      op: "MatchingFiles"
      input: "ShuffleDataset/list_files/file_pattern:output:0"
      device: "/job:worker/task:0/device:CPU:0"
    }
    node_def {
      name: "ShuffleDataset/list_files/Identity"
      op: "Identity"
      input: "ShuffleDataset/list_files/MatchingFiles:filenames:0"
      device: "/job:worker/task:0/device:CPU:0"
      attr {
        key: "T"
        value {
          type: DT_STRING
        }
      }
    }
    node_def {
      name: "ShuffleDataset/list_files/Shape_1"
      op: "Shape"
      input: "ShuffleDataset/list_files/Identity:output:0"
      device: "/job:worker/task:0/device:CPU:0"
      attr {
        key: "T"
        value {
          type: DT_STRING
        }
      }
      attr {
        key: "out_type"
        value {
          type: DT_INT64
        }
      }
    }
    node_def {
      name: "ShuffleDataset/list_files/strided_slice_1/stack"
      op: "Const"
      device: "/job:worker/task:0/device:CPU:0"
      attr {
        key: "dtype"
        value {
          type: DT_INT32
        }
      }
      attr {
        key: "value"
        value {
          tensor {
            dtype: DT_INT32
            tensor_shape {
              dim {
                size: 1
              }
            }
            int_val: 0
          }
        }
      }
    }
    node_def {
      name: "ShuffleDataset/list_files/strided_slice_1/stack_1"
      op: "Const"
      device: "/job:worker/task:0/device:CPU:0"
      attr {
        key: "dtype"
        value {
          type: DT_INT32
        }
      }
      attr {
        key: "value"
        value {
          tensor {
            dtype: DT_INT32
            tensor_shape {
              dim {
                size: 1
              }
            }
            int_val: 1
          }
        }
      }
    }
    node_def {
      name: "ShuffleDataset/list_files/strided_slice_1/stack_2"
      op: "Const"
      device: "/job:worker/task:0/device:CPU:0"
      attr {
        key: "dtype"
        value {
          type: DT_INT32
        }
      }
      attr {
        key: "value"
        value {
          tensor {
            dtype: DT_INT32
            tensor_shape {
              dim {
                size: 1
              }
            }
            int_val: 1
          }
        }
      }
    }
    node_def {
      name: "ShuffleDataset/list_files/strided_slice_1"
      op: "StridedSlice"
      input: "ShuffleDataset/list_files/Shape_1:output:0"
      input: "ShuffleDataset/list_files/strided_slice_1/stack:output:0"
      input: "ShuffleDataset/list_files/strided_slice_1/stack_1:output:0"
      input: "ShuffleDataset/list_files/strided_slice_1/stack_2:output:0"
      device: "/job:worker/task:0/device:CPU:0"
      attr {
        key: "Index"
        value {
          type: DT_INT32
        }
      }
      attr {
        key: "T"
        value {
          type: DT_INT64
        }
      }
      attr {
        key: "begin_mask"
        value {
          i: 0
        }
      }
      attr {
        key: "ellipsis_mask"
        value {
          i: 0
        }
      }
      attr {
        key: "end_mask"
        value {
          i: 0
        }
      }
      attr {
        key: "new_axis_mask"
        value {
          i: 0
        }
      }
      attr {
        key: "shrink_axis_mask"
        value {
          i: 1
        }
      }
    }
    node_def {
      name: "ShuffleDataset/list_files/Maximum/y"
      op: "Const"
      device: "/job:worker/task:0/device:CPU:0"
      attr {
        key: "dtype"
        value {
          type: DT_INT64
        }
      }
      attr {
        key: "value"
        value {
          tensor {
            dtype: DT_INT64
            tensor_shape {
            }
            int64_val: 1
          }
        }
      }
    }
    node_def {
      name: "ShuffleDataset/list_files/Maximum"
      op: "Maximum"
      input: "ShuffleDataset/list_files/strided_slice_1:output:0"
      input: "ShuffleDataset/list_files/Maximum/y:output:0"
      device: "/job:worker/task:0/device:CPU:0"
      attr {
        key: "T"
        value {
          type: DT_INT64
        }
      }
    }
    node_def {
      name: "ShuffleDataset/list_files/seed"
      op: "Const"
      device: "/job:worker/task:0/device:CPU:0"
      attr {
        key: "dtype"
        value {
          type: DT_INT64
        }
      }
      attr {
        key: "value"
        value {
          tensor {
            dtype: DT_INT64
            tensor_shape {
            }
            int64_val: 0
          }
        }
      }
    }
    node_def {
      name: "ShuffleDataset/list_files/seed2"
      op: "Const"
      device: "/job:worker/task:0/device:CPU:0"
      attr {
        key: "dtype"
        value {
          type: DT_INT64
        }
      }
      attr {
        key: "value"
        value {
          tensor {
            dtype: DT_INT64
            tensor_shape {
            }
            int64_val: 0
          }
        }
      }
    }
    node_def {
      name: "ShuffleDataset"
      op: "ShuffleDataset"
      input: "TensorSliceDataset:handle:0"
      input: "ShuffleDataset/list_files/Maximum:z:0"
      input: "ShuffleDataset/list_files/seed:output:0"
      input: "ShuffleDataset/list_files/seed2:output:0"
      device: "/job:worker/task:0/device:CPU:0"
      attr {
        key: "output_shapes"
        value {
          list {
            shape {
            }
          }
        }
      }
      attr {
        key: "output_types"
        value {
          list {
            type: DT_STRING
          }
        }
      }
      attr {
        key: "reshuffle_each_iteration"
        value {
          b: true
        }
      }
    }
    node_def {
      name: "ShuffleAndRepeatDataset/buffer_size"
      op: "Const"
      device: "/job:worker/task:0/device:CPU:0"
      attr {
        key: "dtype"
        value {
          type: DT_INT64
        }
      }
      attr {
        key: "value"
        value {
          tensor {
            dtype: DT_INT64
            tensor_shape {
            }
            int64_val: 100
          }
        }
      }
    }
    node_def {
      name: "ShuffleAndRepeatDataset/seed"
      op: "Const"
      device: "/job:worker/task:0/device:CPU:0"
      attr {
        key: "dtype"
        value {
          type: DT_INT64
        }
      }
      attr {
        key: "value"
        value {
          tensor {
            dtype: DT_INT64
            tensor_shape {
            }
            int64_val: 0
          }
        }
      }
    }
    node_def {
      name: "ShuffleAndRepeatDataset/seed2"
      op: "Const"
      device: "/job:worker/task:0/device:CPU:0"
      attr {
        key: "dtype"
        value {
          type: DT_INT64
        }
      }
      attr {
        key: "value"
        value {
          tensor {
            dtype: DT_INT64
            tensor_shape {
            }
            int64_val: 0
          }
        }
      }
    }
    node_def {
      name: "ShuffleAndRepeatDataset/count"
      op: "Const"
      device: "/job:worker/task:0/device:CPU:0"
      attr {
        key: "dtype"
        value {
          type: DT_INT64
        }
      }
      attr {
        key: "value"
        value {
          tensor {
            dtype: DT_INT64
            tensor_shape {
            }
            int64_val: -1
          }
        }
      }
    }
    node_def {
      name: "ShuffleAndRepeatDataset"
      op: "ShuffleAndRepeatDataset"
      input: "ShuffleDataset:handle:0"
      input: "ShuffleAndRepeatDataset/buffer_size:output:0"
      input: "ShuffleAndRepeatDataset/seed:output:0"
      input: "ShuffleAndRepeatDataset/seed2:output:0"
      input: "ShuffleAndRepeatDataset/count:output:0"
      device: "/job:worker/task:0/device:CPU:0"
      attr {
        key: "output_shapes"
        value {
          list {
            shape {
            }
          }
        }
      }
      attr {
        key: "output_types"
        value {
          list {
            type: DT_STRING
          }
        }
      }
    }
    node_def {
      name: "ParallelInterleaveDataset/cycle_length"
      op: "Const"
      device: "/job:worker/task:0/device:CPU:0"
      attr {
        key: "dtype"
        value {
          type: DT_INT64
        }
      }
      attr {
        key: "value"
        value {
          tensor {
            dtype: DT_INT64
            tensor_shape {
            }
            int64_val: 4
          }
        }
      }
    }
    node_def {
      name: "ParallelInterleaveDataset/block_length"
      op: "Const"
      device: "/job:worker/task:0/device:CPU:0"
      attr {
        key: "dtype"
        value {
          type: DT_INT64
        }
      }
      attr {
        key: "value"
        value {
          tensor {
            dtype: DT_INT64
            tensor_shape {
            }
            int64_val: 1
          }
        }
      }
    }
    node_def {
      name: "ParallelInterleaveDataset/sloppy"
      op: "Const"
      device: "/job:worker/task:0/device:CPU:0"
      attr {
        key: "dtype"
        value {
          type: DT_BOOL
        }
      }
      attr {
        key: "value"
        value {
          tensor {
            dtype: DT_BOOL
            tensor_shape {
            }
            bool_val: false
          }
        }
      }
    }
    node_def {
      name: "ParallelInterleaveDataset/buffer_output_elements"
      op: "Const"
      device: "/job:worker/task:0/device:CPU:0"
      attr {
        key: "dtype"
        value {
          type: DT_INT64
        }
      }
      attr {
        key: "value"
        value {
          tensor {
            dtype: DT_INT64
            tensor_shape {
            }
            int64_val: 2
          }
        }
      }
    }
    node_def {
      name: "ParallelInterleaveDataset/prefetch_input_elements"
      op: "Const"
      device: "/job:worker/task:0/device:CPU:0"
      attr {
        key: "dtype"
        value {
          type: DT_INT64
        }
      }
      attr {
        key: "value"
        value {
          tensor {
            dtype: DT_INT64
            tensor_shape {
            }
            int64_val: 8
          }
        }
      }
    }
    node_def {
      name: "ParallelInterleaveDataset"
      op: "ParallelInterleaveDataset"
      input: "ShuffleAndRepeatDataset:handle:0"
      input: "ParallelInterleaveDataset/cycle_length:output:0"
      input: "ParallelInterleaveDataset/block_length:output:0"
      input: "ParallelInterleaveDataset/sloppy:output:0"
      input: "ParallelInterleaveDataset/buffer_output_elements:output:0"
      input: "ParallelInterleaveDataset/prefetch_input_elements:output:0"
      device: "/job:worker/task:0/device:CPU:0"
      attr {
        key: "Targuments"
        value {
          list {
          }
        }
      }
      attr {
        key: "f"
        value {
          func {
            name: "tf_data_structured_function_wrapper_62iz4XpaPAY"
          }
        }
      }
      attr {
        key: "output_shapes"
        value {
          list {
            shape {
            }
          }
        }
      }
      attr {
        key: "output_types"
        value {
          list {
            type: DT_STRING
          }
        }
      }
    }
    node_def {
      name: "ParallelMapDataset/num_parallel_calls"
      op: "Const"
      device: "/job:worker/task:0/device:CPU:0"
      attr {
        key: "dtype"
        value {
          type: DT_INT32
        }
      }
      attr {
        key: "value"
        value {
          tensor {
            dtype: DT_INT32
            tensor_shape {
            }
            int_val: 8
          }
        }
      }
    }
    node_def {
      name: "ParallelMapDataset"
      op: "ParallelMapDataset"
      input: "ParallelInterleaveDataset:handle:0"
      input: "ParallelMapDataset/num_parallel_calls:output:0"
      device: "/job:worker/task:0/device:CPU:0"
      attr {
        key: "Targuments"
        value {
          list {
          }
        }
      }
      attr {
        key: "f"
        value {
          func {
            name: "tf_data_structured_function_wrapper_nJHqYUuU33c"
          }
        }
      }
      attr {
        key: "output_shapes"
        value {
          list {
            shape {
              dim {
                size: 256
              }
              dim {
                size: 256
              }
              dim {
                size: 3
              }
            }
          }
        }
      }
      attr {
        key: "output_types"
        value {
          list {
            type: DT_FLOAT
          }
        }
      }
      attr {
        key: "use_inter_op_parallelism"
        value {
          b: true
        }
      }
    }
    node_def {
      name: "BatchDatasetV2/batch_size"
      op: "Const"
      device: "/job:worker/task:0/device:CPU:0"
      attr {
        key: "dtype"
        value {
          type: DT_INT64
        }
      }
      attr {
        key: "value"
        value {
          tensor {
            dtype: DT_INT64
            tensor_shape {
            }
            int64_val: 128
          }
        }
      }
    }
    node_def {
      name: "BatchDatasetV2/drop_remainder"
      op: "Const"
      device: "/job:worker/task:0/device:CPU:0"
      attr {
        key: "dtype"
        value {
          type: DT_BOOL
        }
      }
      attr {
        key: "value"
        value {
          tensor {
            dtype: DT_BOOL
            tensor_shape {
            }
            bool_val: true
          }
        }
      }
    }
    node_def {
      name: "BatchDatasetV2"
      op: "BatchDatasetV2"
      input: "ParallelMapDataset:handle:0"
      input: "BatchDatasetV2/batch_size:output:0"
      input: "BatchDatasetV2/drop_remainder:output:0"
      device: "/job:worker/task:0/device:CPU:0"
      attr {
        key: "output_shapes"
        value {
          list {
            shape {
              dim {
                size: 128
              }
              dim {
                size: 256
              }
              dim {
                size: 256
              }
              dim {
                size: 3
              }
            }
          }
        }
      }
      attr {
        key: "output_types"
        value {
          list {
            type: DT_FLOAT
          }
        }
      }
    }
    node_def {
      name: "PrefetchDataset/buffer_size_1"
      op: "Const"
      device: "/job:worker/task:0/device:CPU:0"
      attr {
        key: "dtype"
        value {
          type: DT_INT64
        }
      }
      attr {
        key: "value"
        value {
          tensor {
            dtype: DT_INT64
            tensor_shape {
            }
            int64_val: 128
          }
        }
      }
    }
    node_def {
      name: "PrefetchDataset"
      op: "PrefetchDataset"
      input: "BatchDatasetV2:handle:0"
      input: "PrefetchDataset/buffer_size_1:output:0"
      device: "/job:worker/task:0/device:CPU:0"
      attr {
        key: "output_shapes"
        value {
          list {
            shape {
              dim {
                size: 128
              }
              dim {
                size: 256
              }
              dim {
                size: 256
              }
              dim {
                size: 3
              }
            }
          }
        }
      }
      attr {
        key: "output_types"
        value {
          list {
            type: DT_FLOAT
          }
        }
      }
    }
    ret {
      key: "prefetchdataset"
      value: "PrefetchDataset:handle:0"
    }
  }
  function {
    signature {
      name: "tf_data_structured_function_wrapper_Qky8TA5ITQU"
      input_arg {
        name: "arg0"
        type: DT_STRING
      }
      output_arg {
        name: "tfrecorddataset"
        type: DT_VARIANT
      }
      description: "Wrapper for passing nested structures to and from tf.data functions."
      is_stateful: true
    }
    node_def {
      name: "compression_type"
      op: "Const"
      attr {
        key: "dtype"
        value {
          type: DT_STRING
        }
      }
      attr {
        key: "value"
        value {
          tensor {
            dtype: DT_STRING
            tensor_shape {
            }
            string_val: ""
          }
        }
      }
    }
    node_def {
      name: "buffer_size"
      op: "Const"
      attr {
        key: "dtype"
        value {
          type: DT_INT64
        }
      }
      attr {
        key: "value"
        value {
          tensor {
            dtype: DT_INT64
            tensor_shape {
            }
            int64_val: 262144
          }
        }
      }
    }
    node_def {
      name: "TFRecordDataset"
      op: "TFRecordDataset"
      input: "arg0"
      input: "compression_type:output:0"
      input: "buffer_size:output:0"
    }
    ret {
      key: "tfrecorddataset"
      value: "TFRecordDataset:handle:0"
    }
  }
}
versions {
  producer: 27
  min_consumer: 12
}
